final_model.pth (torch, 237777 bytes, 85 tensors)

feature_preprocessor.network.0.weight f4 [64, 26]
000000 ab 7c 11 3e 06 71 4d 3e a5 12 98 bd fc ab 4e bc
       0.14207713 0.20062646 -0.07425431 -0.012614246
000010 99 4d 27 3d 6f 34 83 3e c5 3b 63 bd d2 f3 7c 3d
       0.040845487 0.2562594 -0.055476923 0.061755963
000020 42 88 80 3d ee f7 13 bd 4d ff ae bd fe f3 54 bc
       0.06275989 -0.036125116 -0.085447885 -0.012997625
000030 cc 2d 94 bd fa a5 ef bd 44 b0 f1 3c 6f 11 af 3d
       -0.072352976 -0.117015794 0.029502995 0.08548247
000040 47 0a 47 3e 29 56 89 3d d7 88 3b 3e fa 20 93 be
       0.19437514 0.06705887 0.18313919 -0.28736097
000050 9f 1e 5c 3d db bd b0 3d 90 b2 e8 3d e4 9e 0e 3e
       0.05374014 0.08629962 0.11362183 0.139278
000060 5e f3 c7 3e ad 66 4f be 18 4d bb 3d 52 1c 11 3d
       0.39052862 -0.20254011 0.09145564 0.0354274
000070 8d 3c 2e 3e e9 df 0a 3d c4 96 36 bd 4c c0 49 3e
       0.17015286 0.033904944 -0.044577375 0.19702262
000080 a7 7d e7 3d ab d9 b7 3d 20 a3 c2 3d 01 ff a7 3d
       0.11303263 0.08977064 0.0950377 0.08202935
000090 df fb 2f 3d d6 7f 64 bd 54 2e 17 bd 23 7f e7 bc
       0.042964812 -0.055785976 -0.036909416 -0.028258866
0000a0 ca e0 d3 3d 2f 9d e1 3d 7e 44 3d 3e bc 5b 2e bd
       0.103456095 0.110163085 0.18483159 -0.042567953
0000b0 66 a4 76 3e 20 f1 11 3e 64 18 f6 3c fb 12 e9 3c
       0.2408615 0.14252138 0.030040927 0.028451433
0000c0 3a 8d 17 bc 82 58 83 3d 17 b0 65 3e 73 66 c2 3e
       -0.00924998 0.06413366 0.22430454 0.37968788
0000d0 df 21 62 3c 38 ba cc 3c 48 e8 a7 bd a6 92 a8 3c
       0.013802021 0.02499114 -0.08198601 0.02057774
0000e0 4c 90 14 bd c9 5c df bd 5c 97 3d 3d 1f 2b 8d 3d
       -0.036270425 -0.10906369 0.046286926 0.0689299
0000f0 98 f9 8d 3d b4 5d 13 3e 8b b8 74 bd a5 20 08 3e
       0.06932372 0.14391214 -0.059746306 0.13293703
000100 f8 6c d3 3d 85 00 b0 bd 00 c1 34 3e 5d 4b dd 3d
       0.103235185 -0.08593849 0.17651749 0.1080539
000110 8b ec d7 3d 92 45 15 3e 44 c1 fb bd d8 80 02 3d
       0.10543164 0.1457732 -0.12292722 0.031861156
000120 86 b1 5b bd 61 c4 03 3e d0 c0 ab bd 18 8e 9d 3c
       -0.053636096 0.12867881 -0.083863854 0.019232795
000130 e4 31 ee 3c 0d 84 87 be 2c c8 23 bc 80 2a 99 3d
       0.029076524 -0.26467934 -0.009996455 0.07478809
000140 cb 96 46 bd 73 11 0a 3c 6c 4b 79 3e f7 75 09 3e
       -0.04848365 0.008427012 0.24345177 0.13423906
000150 47 52 2a bd bb 57 68 3e 6f 7d a9 bb 45 2b 96 3d
       -0.041582372 0.22689717 -0.0051724236 0.07332472
000160 b5 6b 2c 3e ea c5 f0 3d 4a 10 99 bd 03 e6 18 3d
       0.16837962 0.11756499 -0.0747381 0.03732873
000170 76 c7 ad 3d 72 28 bf 3d d9 c7 9e 3d db 78 6a ba
       0.0848531 0.09333886 0.07752962 -0.00089444005
000180 fa 38 4d be 40 9e 14 be 78 3a 95 bd c2 41 88 bd
       -0.20041266 -0.14513493 -0.07286543 -0.06653167
000190 bf b4 e2 bd da 72 e8 bd 8a 52 5e be 26 ed 8f 3d
       -0.11069631 -0.11350031 -0.21711174 0.07027654
0001a0 66 6e 3c be 04 5c 8a bb 69 b5 87 3d 49 41 3a be
       -0.18401489 -0.004222395 0.06626398 -0.18188967
0001b0 a9 7b 44 3d d4 fb 4a be 54 6f e5 bd 63 64 2f be
       0.047969494 -0.19822627 -0.11202875 -0.17128138
0001c0 b5 e0 88 bd b4 42 62 bd 9e cb 3a 3d df db ae bd
       -0.066834845 -0.055239394 0.04560434 -0.08538031
0001d0 04 6e f9 3d cd 93 80 be 04 52 85 bd ef df a9 bd
       0.12179187 -0.25112763 -0.06509784 -0.08294665
0001e0 99 8f 07 bd 93 e9 97 be 64 bf d1 bd 98 1f f1 bd
       -0.03309593 -0.2967039 -0.10241583 -0.11773604
0001f0 d0 68 3c be dd 3f db bd 02 a0 83 3d 84 95 cd bd
       -0.18399358 -0.1070554 0.064270034 -0.100382835
000200 0f 1d 89 be 08 e1 b1 3d 99 60 53 be e0 d4 09 bd
       -0.26779982 0.086854994 -0.20642318 -0.03365028
000210 de 4c 84 3d 23 5b 1d be 66 7c 30 be 1b 16 7a bd
       0.06459974 -0.15366797 -0.17234954 -0.061056238
000220 50 db fd 3c 2e 16 15 3e f8 5c 5c be 32 b8 e1 bd
       0.030988365 0.14559242 -0.2151984 -0.110214606
000230 08 96 06 be 98 a1 97 be f0 eb 95 bc 1e 3f 3c 3d
       -0.1314317 -0.29615474 -0.01830098 0.04595863
000240 49 78 b7 bd d1 ce cd bc 8b 45 2c 3e 6b 38 a6 bd
       -0.089584894 -0.025123032 0.16823404 -0.081162296
000250 5c 54 33 bd 1a aa d8 3d f9 e9 1f be 16 8b 4f 3d
       -0.043781623 0.10579319 -0.15616597 0.050669752
000260 ff b8 84 3d f9 d6 10 3c e9 5f 66 3e 09 ba 3a be
       0.06480598 0.008840316 0.22497524 -0.1823503
000270 ca 58 ae 3d 21 57 5d 3c 00 bd 8a bd 89 cd 84 3d
       0.08513029 0.013509543 -0.0677433 0.06484515
000280 53 ce 4a 3e e5 fd 5f 3e 49 cd bf 3d 97 81 35 be
       0.19805269 0.21874197 0.09365327 -0.17725216
000290 c5 6a 63 be cc aa 18 bd bb 9e 9b 3d 72 2c dd 3a
       -0.22208698 -0.03727226 0.07598635 0.0016874208
0002a0 89 00 c1 3d ec 7b b3 3c e4 53 92 bd 0d 63 e5 3d
       0.0942393 0.021909676 -0.07144907 0.11200533
0002b0 bd c5 08 3e 36 2a bc 3d b0 f5 59 3b 0e c4 30 3d
       0.13356681 0.091877386 0.0033258013 0.043155722
0002c0 7d c1 05 3d f7 76 15 be 79 ea 3a 3c c8 6f 10 be
       0.032655228 -0.14596163 0.011408442 -0.14105141
0002d0 2d 7c 18 be 8c 2d 89 3e d6 92 18 be ab f7 38 be
       -0.1489112 0.26792562 -0.14899763 -0.18063228
0002e0 41 41 50 3d 4f bc 9a bd 19 53 34 bd 2f 4b f2 bd
       0.05084348 -0.07555448 -0.04402456 -0.118307464
0002f0 ca 3f e9 3c ed d1 09 3d 44 ce 6a bd 6a 15 c2 3d
       0.0284728 0.033647466 -0.057325616 0.09476741
000300 ed d1 cc 3c 34 e4 c9 bd b3 6c 15 be a9 ef 86 bd
       0.025002444 -0.098579794 -0.14592247 -0.0658868
000310 27 f3 91 3c df 2a c1 ba d2 14 55 be 5e c8 85 3c
       0.01781614 -0.0014737508 -0.20808724 0.016330894
000320 80 f2 96 ba fe 06 1f 3e d2 92 08 be db 4c 24 3c
       -0.0011516362 0.15530011 -0.13337258 0.010028089
000330 21 a1 59 3e 8b cf 3d bd 1e de d4 bd 57 c2 0d 3d
       0.21252872 -0.046340507 -0.10393928 0.034609165
000340 1a 8a 0a 3c 3c 0b 66 bd 78 1e 0c be a2 ed ec 3c
       0.008455778 -0.056163058 -0.13683498 0.028921906
000350 7b 6a 08 bc 99 8e 74 be f4 33 5a be 7b e3 08 be
       -0.008326168 -0.23882522 -0.21308881 -0.13368027
000360 7c 02 1f be a6 df 31 be 3c f4 0a bd e5 a8 15 be
       -0.15528291 -0.17370471 -0.033924326 -0.1461521
000370 0b e3 1e 3d b3 72 d6 3d 6f 2a 9e 3d 08 81 f2 bd
       0.038790744 0.10471096 0.07722937 -0.11841017
000380 05 ec 3a be 8f 68 09 bd 1c bf 7d 3c 7c 33 16 3e
       -0.18254097 -0.03354698 0.015487459 0.14668077
000390 5d f0 20 3c 45 82 6b ba b5 ea de bd e3 18 e9 3d
       0.009822932 -0.000898395 -0.108846106 0.113817
0003a0 9b f0 39 be 24 71 34 be b0 a5 1d 3d 56 5c 5f bc
       -0.1815819 -0.17621285 0.03848809 -0.013632854
0003b0 6e 91 aa bc 7e 9d b6 3c 7a 7c f1 bc 48 db ea bd
       -0.0208213 0.022291895 -0.0294783 -0.11467606
0003c0 b1 62 a4 3d eb ad a9 bc 84 48 60 be 12 23 50 bb
       0.080266364 -0.020712813 -0.21902663 -0.0031759185
0003d0 09 01 32 bc ca 71 0b be e4 79 2c be be c3 22 3e
       -0.010864505 -0.13617626 -0.16843373 0.15894982
0003e0 c7 58 48 3d 87 e2 b6 bd 93 e9 0e 3e e8 72 47 bd
       0.04891279 -0.089299254 0.13956289 -0.048693568
0003f0 db a0 d6 bd 84 77 82 be ff 7b 34 bb 19 b0 f5 3d
       -0.104798995 -0.25481808 -0.0027539728 0.119964786

feature_preprocessor.network.0.bias f4 [64]
000000 31 57 8c bd 6a 61 0e 3e 82 f3 ec bd 54 4c 6a 3c
       -0.06852568 0.13904348 -0.11569883 0.014300425
000010 d4 33 c5 bd 63 a4 a7 bd f9 b3 29 3e 7c c8 09 be
       -0.09629026 -0.08185651 0.1657256 -0.13455385
000020 7f 4a 0e 3e 52 e9 8a bc a6 3f 49 bd 6d 1e 07 3d
       0.13895606 -0.016956959 -0.049132966 0.032988
000030 4d 1e 51 3e d8 e0 18 be c4 ad 7a 3e b8 15 f8 3d
       0.20421715 -0.14929521 0.24480349 0.121135175
000040 04 80 4e be 66 01 4a 3e c9 4d be 3d c8 f1 8f bc
       -0.20166022 0.19727096 0.0929218 -0.017571345
000050 d7 8f 81 be f8 d0 23 3e 69 96 e4 bd 3e 4c 96 bd
       -0.25305054 0.15997684 -0.11161501 -0.07338761
000060 fb 15 8e bd bd aa 7b 3d e0 15 81 3d 4f 7b cd 3d
       -0.06937786 0.061442126 0.063030005 0.10033285
000070 b5 ec 19 3e 35 70 a3 3d e6 38 5d 3e 33 bc ca bd
       0.15031703 0.07980386 0.21603736 -0.098991774
000080 ca 0f 14 3e 3f 1c 7e 3d 15 0e e0 3d 5d c1 90 3e
       0.14459148 0.062038656 0.10940186 0.28272524
000090 86 2e 41 be 38 6a 8e 3d b7 b8 19 be 13 be 1f 3d
       -0.18865404 0.06953853 -0.1501187 0.03899963
0000a0 d0 58 2d be fc 68 13 be b4 16 85 bd 78 98 09 bd
       -0.1692841 -0.14395517 -0.06498471 -0.03359267
0000b0 e2 da cf 3d 56 d7 0b be ad d1 23 3d 0c c3 82 bc
       0.101491705 -0.13656363 0.039994884 -0.015962146
0000c0 3b 6f 5c be a8 87 27 3a a1 97 e1 3c b9 4b c0 3c
       -0.21526806 0.0006390759 0.027538123 0.023473607
0000d0 88 96 d5 bd 65 59 02 3d 54 b7 4a 3e 56 da 0d be
       -0.10429102 0.031823535 0.19796497 -0.1385282
0000e0 eb f6 12 be d2 a7 58 bc f2 3e 01 be 52 25 b9 bd
       -0.14352004 -0.013223605 -0.12621668 -0.090403214
0000f0 8c e8 06 be 10 a0 62 be aa 01 5c 3d 51 1a 47 3d
       -0.13174647 -0.22131371 0.053712524 0.04860908

feature_preprocessor.network.2.weight f4 [64, 64]
000000 1c d3 db 3a ff 26 cb 3d 06 f2 22 3d d5 7e a6 bd
       0.001677129 0.09919547 0.039781593 -0.0812966
000010 db 85 c3 bd 1a b4 08 3e fc 6a 42 3c ed 91 16 bc
       -0.09547015 0.13349953 0.011866327 -0.009190065
000020 7b e6 29 bd ab 5f 2b 3d 92 c5 fa bc a8 f3 7d 3d
       -0.04147957 0.041839283 -0.030611787 0.061999947
000030 19 bc ed 3d d2 93 ad 3c be 24 4f 3d 55 f3 4b bd
       0.116081424 0.02118865 0.05057215 -0.049792606
000040 94 d3 da 3c 64 d3 22 3e aa b4 30 3e 36 df 09 3d
       0.026712216 0.15900952 0.17256418 0.033660136
000050 5b 39 d9 bb ff 57 7f bd 2b 0a 21 bd f3 c5 1a 3d
       -0.0066291518 -0.06233978 -0.039316338 0.037786435
000060 ce 22 84 bd 3b 8a cd bd b1 4d 06 3e 15 dd a7 3d
       -0.06451951 -0.10036131 0.13115574 0.08196465
000070 a5 ab 18 be e0 76 98 3d 73 13 01 3d 9d d2 bb bc
       -0.14909227 0.074445486 0.03151269 -0.022927577
000080 ee 24 00 3d 84 0b 9f 3d 89 4c af 3d ba 9f 85 bd
       0.03128522 0.07765868 0.0855952 -0.06524606
000090 aa 48 38 bd d6 48 ab bd ef 01 e2 3d 44 1b 33 bd
       -0.044991173 -0.08363502 0.11035525 -0.043727174
0000a0 e9 4a 71 3c 0a cf 03 bd 53 5e 03 be ba 42 ac 3d
       0.014727333 -0.03217987 -0.1282895 0.084111646
0000b0 99 5c ed 3d 46 f2 f2 bd 23 50 1e 3e 61 24 6c 3d
       0.11589927 -0.11862616 0.15460257 0.05765188
0000c0 cc 7e 3e bd e8 4d ee bd 37 4c bc bc 2a a2 e5 3b
       -0.04650764 -0.11635953 -0.02298556 0.007007857
0000d0 85 07 c2 be be af 88 bd e2 fc f7 bd 0f 70 37 be
       -0.37896362 -0.06674145 -0.121087804 -0.1791384
0000e0 6f f3 b7 3d bb 13 47 3c 5c 33 15 3d 38 e5 c7 bd
       0.08981978 0.0121507 0.036425933 -0.09760517
0000f0 6f 85 a1 3d 6e 42 14 3e 4d 8f 09 be e1 97 1c bd
       0.078867786 0.14478466 -0.13433571 -0.03823078
000100 e9 f3 24 bd d9 09 98 bd eb 91 42 bc 4f 0b cf 3d
       -0.040271673 -0.07423753 -0.01187561 0.10109579
000110 79 bf 8e 3d 6c 6f 76 bd 3a 14 23 bd df be a5 bd
       0.06970114 -0.060164854 -0.03981421 -0.080930464
000120 1d 8b 14 3e 66 4c bd bc 6d b3 26 be 84 e0 cb 3c
       0.14506193 -0.023107719 -0.16279383 0.02488733
000130 33 5a 6c 3d 37 97 b7 bd 12 aa 07 3d 3f e9 a5 bd
       0.05770321 -0.08964389 0.033121176 -0.08101129
000140 26 b9 67 3d 28 f7 19 3e fa 09 d8 bd cd 2e b6 bd
       0.056573056 0.15035689 -0.10548778 -0.08895645
000150 86 91 00 3d bb 94 cf 3d 59 4b 5c bd b1 1f 4f 3d
       0.031388782 0.1013579 -0.053782795 0.050567333
000160 ab 86 0a 3d 58 9c b9 bd 13 4c 36 bd bf a2 a2 3d
       0.033819836 -0.09063023 -0.044506144 0.079411976
000170 96 6e ac bd ee 91 09 3d da dd e7 bd 29 eb b5 3d
       -0.0841953 0.033586435 -0.11321612 0.08882744
000180 ea d5 89 3d 80 d2 5b bd 3b a8 54 bd ab 36 e6 3b
       0.06730254 -0.053667545 -0.05191825 0.00702556
000190 c4 98 5e bc 7c b6 c7 bd 2b 3d 9e 3d bf 8b af 3d
       -0.013586227 -0.09751603 0.077265106 0.08571576
0001a0 cc ff 89 bd fb 08 ea bc a3 d3 21 3e f7 22 8c 3b
       -0.067382425 -0.028568735 0.15803389 0.004276629
0001b0 5c e1 2d bd 26 9a cb bd 57 50 9f bd 82 54 5c 3c
       -0.042451248 -0.09941511 -0.077789955 0.013447883
0001c0 ba 58 07 3e ae 8c f9 bc 56 55 a2 bd c5 37 20 be
       0.1321744 -0.03046259 -0.07926433 -0.15646274
0001d0 43 3b 53 bd 93 aa fc bd 60 4e 1e bd 47 f0 14 bd
       -0.05157019 -0.12337222 -0.038648963 -0.03636196
0001e0 69 b2 71 bc 06 fa d8 3d 0e 81 4e bd aa 22 32 3e
       -0.014752009 0.10594563 -0.050416045 0.17396036
0001f0 23 a2 70 bd a1 88 98 3d c1 a1 c9 3d eb 75 00 3d
       -0.058748376 0.07447935 0.09845305 0.031362455
000200 a6 52 af bc 71 3a ff 3d 5a 0d 98 3d e9 43 2e be
       -0.021401715 0.12462319 0.074244216 -0.17018093
000210 0d 66 d0 bb 1f f4 db 3d a8 bd 80 3d c8 55 c2 3c
       -0.0063598217 0.10739922 0.06286174 0.023722544
000220 61 5c 37 3e ff 5b 9b bc de 30 27 be ef ca d2 bd
       0.17906334 -0.018964766 -0.16327235 -0.10292613
000230 c3 bc 84 3d a4 8b 9d bd 27 65 8c 3c ab 33 3a bd
       0.06481316 -0.0769265 0.017138077 -0.04545943
000240 d3 d2 8e 3e ea 2b 41 be c2 1d 2b 3e 5d d5 49 3d
       0.2789522 -0.18864408 0.1671057 0.049275745
000250 94 30 6e bc b6 38 b1 bd 8a 8c 5d bd e6 97 79 3e
       -0.014537949 -0.08653395 -0.054089107 0.24374351
000260 87 98 7b be 64 2f 84 bd 1f b6 e2 3d dd 47 72 3d
       -0.24569903 -0.064543515 0.11069893 0.059150565
000270 59 7a 79 bd c8 95 13 3c 35 68 07 bd 03 b0 26 bd
       -0.060907695 0.009007879 -0.033058364 -0.0406952
000280 33 63 e9 3d ac 0d da 3d 22 de 3d bd 41 1c 9f 3c
       0.11395874 0.10647139 -0.04635442 0.019422652
000290 bd 52 26 bc 1d 01 cf 3d e3 da ee bd b8 27 01 3c
       -0.010151562 0.10107634 -0.11662843 0.007883005
0002a0 02 ae 69 3e 7a 89 28 3d e7 b0 14 bd ed 9b 42 be
       0.22820285 0.041146733 -0.03630152 -0.19004793
0002b0 18 bc 2c be 31 51 9a bd 0a c4 44 3c 29 da 8b bd
       -0.16868627 -0.07535017 0.01200963 -0.0682872
0002c0 4c a6 d8 3d 9e 79 13 bd fd 07 c2 bd 59 e9 e0 3d
       0.105785936 -0.036004655 -0.0947418 0.109820075
0002d0 b8 4b 2e be 34 2c 46 3c 88 f6 ed bd 60 93 21 bd
       -0.17021072 0.0120955 -0.11619288 -0.03944719
0002e0 88 8a ef bd cc 08 11 be 11 24 79 3c 69 20 0a be
       -0.116963446 -0.14163512 0.015206353 -0.13488926
0002f0 f7 c2 52 3e 41 d5 63 3e 73 c9 54 3d 41 a6 73 3c
       0.20582186 0.22249319 0.05194993 0.014871181
000300 66 74 1b be 9a dd 2e bd d4 09 c0 3d 94 4d a7 3d
       -0.15181121 -0.042691804 0.093768746 0.08169094
000310 5f 13 9d bc 2e 7a 53 be 53 62 61 3c 04 dd f3 3d
       -0.019174276 -0.20652077 0.0137563525 0.1190739
000320 b5 c0 c8 3d ca cc e6 3d 97 d5 70 3d 13 61 d6 3d
       0.09802381 0.11269529 0.058797445 0.10467734
000330 df c9 5f be 86 ff 01 3e 54 18 b0 bd 30 bd 35 bd
       -0.21854351 0.1269513 -0.0859839 -0.044369876
000340 23 f8 47 be 55 44 b0 3c e5 79 8a bd 8f d6 f9 bd
       -0.1952825 0.021516958 -0.06761531 -0.12199127
000350 bf e8 1a 3e 2b 7a bc 3c 6e 71 f1 3d 72 55 43 3e
       0.15127848 0.023007473 0.11789213 0.19075564
000360 d6 45 0c be a8 99 a6 bd b9 95 2f bc 1a 4b 00 3d
       -0.13698515 -0.08134776 -0.010716849 0.031321622
000370 db a3 2d bd 04 02 ad 3c 7d 00 24 3b ec ea 00 3e
       -0.042392593 0.021119125 0.0025024705 0.12589616
000380 97 00 f2 bd 7b 52 85 3c d2 d8 82 3d b1 6a 85 bd
       -0.11816519 0.016274681 0.063890114 -0.065144904
000390 2b 61 e4 bd f7 fe 12 bc a1 4a b7 bd d9 7a ad 3d
       -0.11151346 -0.008971921 -0.08949781 0.08470697
0003a0 e9 64 14 be b5 09 c5 bd 63 d8 6d bd a6 6a 1f 3e
       -0.14491619 -0.09620992 -0.05806769 0.15568027
0003b0 a8 cb e3 bd 78 51 fb bd 94 44 e3 3d 03 c2 ca 3d
       -0.11122829 -0.12271398 0.110970646 0.09900286
0003c0 c6 70 65 3d f7 14 bb bd 1f 74 9f 3d 90 2c 26 be
       0.056015752 -0.09134858 0.0778582 -0.16227937
0003d0 6c 20 01 be 9f 14 b1 bd 23 a4 fb 39 73 db 2b be
       -0.12610024 -0.08646511 0.00047996742 -0.16782932
0003e0 f1 eb 99 bd 09 ce c7 3d 9d 17 8a bc 0f a3 ba bd
       -0.075157054 0.09756095 -0.016856963 -0.09113132
0003f0 3b c6 24 3d ed 50 1e 3e f4 68 4a bc 57 04 df bd
       0.04022811 0.15460558 -0.012354124 -0.108895

feature_preprocessor.network.2.bias f4 [64]
000000 2b 99 fe 3d 7f 08 1a 3d 73 de 80 bc 0f f7 a5 3d
       0.12431558 0.03760576 -0.015731072 0.08103763
000010 76 6c 51 bd 6c 03 f1 bd 70 14 5d bb 4d 9b de 3d
       -0.051128827 -0.11768231 -0.0033734106 0.10869465
000020 0e c6 57 3d 63 ef 87 bd ba 92 d0 3d 7a 26 06 3e
       0.052679114 -0.06637456 0.10184236 0.13100615
000030 5d cb cb 3d a3 e2 a9 3d 57 58 00 be b3 71 0f bd
       0.09950898 0.08295181 -0.12533699 -0.03502054
000040 e4 30 90 bc 2c c4 0c bd d4 cc c6 bd 96 c8 c9 3d
       -0.017601438 -0.03436677 -0.097070366 0.09852712
000050 0b 6c 30 3c 55 3a 50 3d c9 da e2 3c ee 3f 63 3d
       0.010767947 0.05083688 0.027692216 0.05548089
000060 ee df a6 bd 6f 51 15 be a3 2f 88 bd c5 5b 0c 3d
       -0.0814818 -0.14581846 -0.06649711 0.034267206
000070 26 83 c7 3c de 44 fb bc 34 bd bc 3d 0d b7 c7 bc
       0.024354529 -0.030672487 0.09215775 -0.024379278
000080 f7 68 9f bd c7 9b d5 3d 18 34 4e bd f2 96 0d 3e
       -0.07783692 0.10430103 -0.05034265 0.13827112
000090 73 c0 02 be 88 dc db bc c5 c8 02 3d 4d 49 97 3d
       -0.12768726 -0.026838556 0.03192975 0.07387028
0000a0 33 a9 df 3d 0f 32 08 3e af 0c 39 3e 44 f4 10 be
       0.10920944 0.13300346 0.18071245 -0.1415568
0000b0 25 52 bb 3d 0c 50 06 be d2 ba 7e bc 6b 0f 90 bd
       0.09146527 -0.13116473 -0.015547471 -0.07034191
0000c0 95 fa 61 bd 01 6c b3 bc f6 28 ba bd c7 dd c8 bb
       -0.055170614 -0.021902086 -0.09089844 -0.0061299535
0000d0 78 44 3d 3d 3a 67 d5 bd c1 9d f3 bc 2b 2b 3f bc
       0.046207875 -0.104200795 -0.029738309 -0.011668007
0000e0 35 0f c2 3d 59 08 1d bd a7 18 39 3d 9c e5 06 3e
       0.09475557 -0.03833804 0.045189526 0.13173527
0000f0 b1 43 cd 3c 5c 82 9a bd 22 42 db 3d bc 81 8c 3d
       0.025056692 -0.07544395 0.10705973 0.06860682

feature_preprocessor.network.4.weight f4 [32, 64]
000000 a8 0f 11 be 99 c1 b7 3d f6 c8 b8 bd 10 cf 8b bc
       -0.14166129 0.08972473 -0.09022705 -0.017066509
000010 d6 e3 0f 3e c3 f2 8f 3d 8f 0a 95 3d 18 05 0e 3c
       0.14051756 0.07028725 0.072774045 0.008668207
000020 52 95 38 3d 8f b2 81 bb 42 28 53 3c a3 a4 eb 3d
       0.045064278 -0.0039580534 0.012888016 0.11506011
000030 e4 ba df 3d f6 9b 01 bd 5e 81 42 3d 72 28 c4 bd
       0.109243184 -0.031642877 0.047486655 -0.09578027
000040 fe 6d 46 3d 14 85 4a 3d f8 14 33 3d d3 fe ac 3d
       0.04844474 0.04944332 0.04372117 0.08447041
000050 ca b7 c1 bd 21 fa e1 bd ce 3d 9f bd 67 63 8b bc
       -0.09458883 -0.110340364 -0.0777546 -0.017015172
000060 78 01 ac 3c 68 f1 17 be 3f 53 26 bd 5a 63 f0 bc
       0.020996794 -0.14838183 -0.040606733 -0.02934425
000070 b5 bc c6 3d 5a ad b3 bd 74 da b5 bd 40 a3 d1 bd
       0.09703962 -0.087732986 -0.08879557 -0.102362156
000080 b2 fe f4 3d ad 8f 33 bd 81 c8 63 bc f6 32 cb bd
       0.11962642 -0.04383819 -0.013902784 -0.099218294
000090 92 a5 c8 bd 52 50 65 3a 35 b6 81 bd a9 c6 7a 3c
       -0.09797205 0.00087476254 -0.06333581 0.015306153
0000a0 c7 fb 96 3d 29 48 10 3c 16 f2 ba bc 2c b7 d8 3d
       0.073722415 0.008806267 -0.022820514 0.10581812
0000b0 8e 1e d2 bc ac 93 b1 bd f9 21 ef bd 0e ff db bd
       -0.025649335 -0.08670744 -0.11676402 -0.10742007
0000c0 df ae 5a 3c 23 7c 81 bd 52 6b 18 be df c0 e8 bd
       0.013347357 -0.06322505 -0.1488469 -0.11364912
0000d0 97 35 cb 3c ff af 40 be aa 7a f4 3c bb 27 0f be
       0.024805827 -0.18817137 0.029843647 -0.1398
0000e0 43 eb 88 3c 06 a8 d2 3d 5c 08 7f 3c f8 2a 62 bd
       0.016713744 0.10285954 0.015565958 -0.05521676
0000f0 3a 8d d7 3d c1 4e 17 bb 61 30 f0 3d b9 34 62 3d
       0.10524984 -0.0023087712 0.117279775 0.05522606
000100 5d f7 ac 3d f5 83 26 bd f0 01 21 3e 97 7a 3a be
       0.08445618 -0.040653188 0.15723395 -0.18210827
000110 2d fc 9d 3d b5 0b 0e be c3 a6 a4 bd 29 94 17 be
       0.07714114 -0.13871653 -0.0803962 -0.14802612
000120 1b 54 8c 3c a2 fe 8a 3e 9d 37 8e 3c 1d 02 82 bd
       0.017129948 0.27147394 0.017360503 -0.06348059
000130 1a 4e 88 bd 7d a0 75 bb 3b 7f 60 3d eb 19 37 be
       -0.06655522 -0.0037479692 0.054808836 -0.1788098
000140 dd 45 ac 3d 81 8a 50 be cd f1 ae bd 5e ab 84 bd
       0.08411763 -0.20365335 -0.085422136 -0.06477998
000150 64 a5 38 3d 96 50 1c 3d 7b 38 15 3d 05 0b ff bd
       0.045079604 0.03816279 0.036430817 -0.12453274
000160 43 84 73 be db 96 8f be 69 fb 25 bd 39 6e 9f 3c
       -0.23780923 -0.2804478 -0.040522967 0.019461738
000170 46 24 b8 bd 2b 68 bb bd da 4a a7 3d 5f a6 81 bd
       -0.089912936 -0.09150728 0.08168574 -0.06330561
000180 20 be c3 bd 77 a5 e0 3d af 7e 86 bd 24 ed 45 bd
       -0.09557748 0.1096906 -0.06567132 -0.048321858
000190 0c 7c ac 3d 4f 47 9d bd 59 a8 2c be 68 6d 9b 3d
       0.084220976 -0.07679617 -0.16861095 0.07589227
0001a0 4e c7 ef bd 3b 25 70 bd 03 79 ee bd e7 aa 3f bd
       -0.11707936 -0.058629256 -0.11644175 -0.046793845
0001b0 8f 50 89 3d d7 87 ad 3d 20 de 8a 3b 72 76 29 3d
       0.067048185 0.08473175 0.004237905 0.041372724
0001c0 fd 8e d7 bd 83 30 cb bd cf 9b a4 bd fc 79 b3 3c
       -0.1052532 -0.09921362 -0.08037531 0.021908753
0001d0 6a de 0b be a8 bd d0 bd 79 47 cf bc aa ac ea 3d
       -0.13659063 -0.10192424 -0.025302636 0.11458714
0001e0 a3 15 8e 3d da 73 a1 bd 38 70 0d be 90 01 49 3c
       0.069377206 -0.07883425 -0.1381234 0.012268439
0001f0 84 35 81 bd a6 10 8b bd d9 b4 04 3e 20 f0 c4 3d
       -0.063090354 -0.06790285 0.12959613 0.09616113
000200 4a c7 cd bb b1 b0 2e bd dd 31 14 3d 05 3a c0 3c
       -0.0062798606 -0.042648975 0.036180366 0.023465166
000210 e5 19 0d bd c3 c5 3d 3e 17 41 1a 3a 84 1d de bd
       -0.034448523 0.18532471 0.0005884333 -0.108454734
000220 70 68 cc 3d 75 32 d6 3a 84 74 6c bc 8a 20 47 bc
       0.09980857 0.0016341942 -0.014432076 -0.012153754
000230 4d 22 8e bd 05 30 c1 3d 56 10 08 be e0 10 9b bd
       -0.06940136 0.09432987 -0.13287482 -0.07571578
000240 5a ab 1b bd bf 6c a8 3d cc 2b d3 3d ee 13 4d 3d
       -0.03800521 0.08223867 0.10311088 0.050067835
000250 90 f3 50 3e 5f df 03 be e9 9a ee 3d 57 bb 64 bb
       0.20405412 -0.12878178 0.116506405 -0.0034901702
000260 1b 93 b7 bc 54 df 15 bd 7c fa c3 3c da 3b e6 3d
       -0.022409013 -0.036589935 0.023923151 0.112418845
000270 57 7a ba 3d bc 14 13 3e 66 c7 bc bd 93 11 4e bd
       0.09105366 0.14363378 -0.0921772 -0.05030973
000280 68 12 04 be 29 ff b7 bd de c0 ca bd ef f1 f5 3d
       -0.12897646 -0.08984215 -0.09900068 0.12009036
000290 42 7b d3 3d 37 85 0f 3e f8 8c 05 3d f0 50 ea 3d
       0.10326244 0.14015661 0.03260514 0.11441219
0002a0 34 94 99 bd 40 63 ca bd 05 e9 d8 3d 2c ae 6a 3c
       -0.07498971 -0.09882212 0.1059132 0.014323752
0002b0 96 fc 4f bc 81 26 99 bd 98 1e c9 3d 91 64 b7 3d
       -0.0126944985 -0.07478047 0.098202884 0.089547284
0002c0 5b 91 05 3e b8 d2 85 3d 41 a8 5d 3d 8f ea 0e bd
       0.1304373 0.06534332 0.054115538 -0.03489166
0002d0 1c 96 a6 bd 9f 9d 0d bd d4 5a 48 be 7d 51 49 3c
       -0.081341 -0.034574147 -0.19565898 0.012287495
0002e0 ea 77 09 3e ca 27 10 bb 18 fd e0 3d 5b 27 3a 3c
       0.1342465 -0.0021996372 0.10985774 0.011361922
0002f0 aa 89 b9 bc 60 86 eb 3c 9f 54 ab bd 29 3b 1f 3d
       -0.022648651 0.028750598 -0.083657496 0.03887478
000300 13 d4 d8 bc 4c fc cd 3c 76 34 64 bd 24 79 04 3e
       -0.026468312 0.025144719 -0.055714093 0.12936836
000310 ac c7 a2 3d 36 47 85 bd 7a 5f 25 3e fa a4 8e 3d
       0.07948241 -0.06507723 0.16149703 0.069650605
000320 ec 09 0e 3d f5 91 59 3c d4 1a 04 3d c6 af 95 3b
       0.03467743 0.013279428 0.032252148 0.004568073
000330 ad e8 ec 3c 84 e9 b6 bd 87 4b 6b 3c 9c 9f 09 be
       0.028919542 -0.08931258 0.014361269 -0.13439792
000340 fb a5 c6 bd a7 2a ac 3c c9 43 61 3d 0f f6 92 3d
       -0.09699627 0.021016432 0.054996286 0.07175838
000350 8f 59 20 3d 33 ea d1 bd 9c d3 c5 bd 7f 65 06 be
       0.03914791 -0.10249748 -0.09659502 -0.13124655
000360 01 00 ca bd c8 f4 24 bd e4 7e 77 bd e0 d3 3f bc
       -0.09863282 -0.040272504 -0.060423747 -0.01170823
000370 25 2f 97 3c 84 31 59 3d e5 53 d2 bd 5a 4e 65 3d
       0.018455097 0.053025737 -0.10269908 0.055982925
000380 cf 0e 4e be 28 09 83 3d cd 9e 2b bd d7 ff c8 bd
       -0.20122837 0.06398231 -0.04189949 -0.098144226
000390 d4 81 a2 bd 75 8f 7c 3d 6f e3 83 bd 4b 9e 9a 3d
       -0.07934919 0.06166025 -0.06439864 0.07549723
0003a0 12 79 98 bc 1b c5 fd 3c c3 a3 13 be db 10 dd bb
       -0.018612418 0.030977776 -0.14417939 -0.006746394
0003b0 e3 55 bd 3c 51 68 0c 3e 97 0d 26 bc 61 68 28 bd
       0.023112243 0.13711669 -0.010135076 -0.04111517
0003c0 35 10 6a bc e9 57 a8 3d 8d 0e 43 3c 07 81 cb 3d
       -0.014286091 0.082198925 0.011905325 0.099367194
0003d0 ac b7 0d be 3a 96 02 be 05 e7 b5 3d d6 f4 2f 3a
       -0.13839597 -0.1275262 0.08881954 0.00067122036
0003e0 73 c1 39 be 92 d8 9c 3d df 98 0c bc 85 9a e6 bd
       -0.18140201 0.07658495 -0.008581369 -0.11259941
0003f0 37 a3 27 3d 91 ed 87 bd e4 f6 e2 3c f5 b5 d5 3b
       0.04092714 -0.06637109 0.027705617 0.006521935

feature_preprocessor.network.4.bias f4 [32]
000000 c7 a8 93 3d eb bc 98 bd 7e 63 d2 bd f5 dc 90 3d
       0.07209926 -0.07457908 -0.10272883 0.07073394
000010 4d 41 d0 bb 99 65 0d 3c 9d 1f a7 3c 26 80 bc 3d
       -0.0063554407 0.00863018 0.020400817 0.0920413
000020 07 2c 90 3d 4f b1 0c bc 9f 30 06 be 55 c8 47 3d
       0.070396475 -0.008587196 -0.13104485 0.048775036
000030 97 03 b1 3d 65 28 a3 bd 30 ef 09 3e b9 74 ce 3d
       0.08643263 -0.07966689 0.13470149 0.10080857
000040 32 ee 39 3c b6 2e 21 3e 9f 8a ab bd 06 b0 3f 3b
       0.011348294 0.15740475 -0.08376049 0.0029249205
000050 38 4a b1 bd d7 14 db 3d 41 d1 12 3e b9 a2 f9 bd
       -0.08656734 0.10697334 0.14337637 -0.1218924
000060 45 0b 5a 3c f8 0e c3 3d 77 31 cc bc e4 84 84 3a
       0.013308351 0.095243394 -0.02492593 0.0010110405
000070 7d 44 93 3d 6e 47 8b 3c 08 8e 0c bd 8d 53 16 bc
       0.071907975 0.017001834 -0.03431514 -0.0091751935

dual_encoder.vencoder.layers.0.shared.q_linear.weight f4 [32, 32]
000000 e2 76 38 be 2d f7 3b bc eb e7 97 3e 7a 47 be 3e
       -0.180141 -0.0114725055 0.29669127 0.37163907
000010 4d aa 93 bc a6 03 b9 3b 05 d2 88 3e 71 fc 83 3e
       -0.018025542 0.005646187 0.26722732 0.25778535
000020 27 55 34 bd d6 2a 6f 3c 46 d3 98 bd d5 07 45 be
       -0.04402652 0.014597615 -0.07462172 -0.19241269
000030 c2 ce 9d bd bf 61 1e 3e 49 89 1e 3e 2e 7a 57 3e
       -0.077054515 0.15466975 0.15482058 0.21042702
000040 dc 8f 10 be e8 dc de bd bc 4a b4 bc 23 4b 17 3e
       -0.14117378 -0.10881978 -0.022008292 0.14774756
000050 81 3c 9c 3d 8c 1b cc 3d 2f 29 53 3e 13 06 23 3e
       0.07628728 0.09966192 0.20621179 0.15920286
000060 a4 18 bc be 82 92 18 3e bf 6f 0d be 40 d6 c0 3d
       -0.3673755 0.14899638 -0.13812159 0.09415865
000070 3d 80 9b 3c 20 93 80 3d c5 a5 cc bd 20 7f 50 3e
       0.018982047 0.06278062 -0.099925555 0.20360994
000080 f5 e4 89 3e ec 60 5c bc 33 f1 d1 bd 7c 78 f2 bd
       0.26932493 -0.013450842 -0.10251083 -0.11839387
000090 47 15 53 3e 60 94 f9 3d 1c c9 e5 3c 61 71 02 be
       0.20613585 0.121865034 0.028049998 -0.12738563
0000a0 a6 2d 4c 3e 03 b0 06 bd d2 d0 18 3e e4 ca 84 3d
       0.19939288 -0.0328827 0.14923409 0.06484011
0000b0 65 89 75 3d b1 b9 30 3e 01 4c 35 bd 66 9f 78 bd
       0.059945483 0.17258336 -0.044261936 -0.06069889
0000c0 f5 ed 11 3e 5f 98 dc bd e7 83 a3 3d ee d7 0e be
       0.1425093 -0.1077125 0.07984143 -0.13949558
0000d0 fc 43 18 be 46 79 a5 3d b3 15 35 3e 98 d6 54 bd
       -0.14869684 0.08079772 0.17684059 -0.051962465
0000e0 94 dd 52 3e c5 ef eb bd 04 82 76 3c 51 a1 e3 3b
       0.20592338 -0.11520342 0.015045647 0.0069467206
0000f0 52 c0 07 be 90 36 86 3e f0 30 e1 bd 04 40 b0 3d
       -0.13256958 0.26213503 -0.10995662 0.0860596
000100 1a c0 7a 3e 2f 59 8c 3e eb ad 8c bd e6 b3 dd bd
       0.24487343 0.27411792 -0.0686911 -0.108253285
000110 91 f9 17 3e 9c 5d 3e be 96 83 98 be cc a9 42 be
       0.14841296 -0.18590397 -0.29787892 -0.19010085
000120 58 4a 60 bd 46 9c ae 3d f1 f8 fa 3d e4 3f 47 bd
       -0.0547584 0.085259005 0.12254513 -0.048644915
000130 f1 af 72 3e 58 aa 55 3d 24 2d 11 be af 2b 44 bd
       0.23699929 0.052164406 -0.14177376 -0.047893222
000140 c7 e7 85 bc 19 4f 43 bb aa 4d bc 3c 4d d3 bc bd
       -0.016345872 -0.0029801785 0.022986252 -0.0921999
000150 81 4f 3a be 9a cb b2 bd 56 7b 08 bc d4 a9 85 be
       -0.18194391 -0.0873024 -0.008330187 -0.2610613
000160 8c 82 01 3f 68 0e e7 3a a6 f1 85 3e 5f a6 f3 bb
       0.50589824 0.0017628195 0.26160926 -0.0074356045
000170 a8 83 ab bd eb 35 03 3e a6 b4 23 bd 2f 17 1f 3c
       -0.08374721 0.12813537 -0.0399672 0.009710117
000180 30 46 b0 be 04 5b a2 bd bf f1 62 3e 94 66 71 3d
       -0.3442855 -0.07927516 0.22162531 0.058935717
000190 0b eb 56 3e b1 16 ab 3d 1b 16 57 3e 4a 3b a5 bd
       0.209881 0.083539374 0.21004526 -0.08067949
0001a0 69 92 1d 3e b1 8b d9 b8 47 f8 01 3e 15 c5 89 be
       0.15387882 -0.00010373386 0.12692367 -0.26908174
0001b0 18 c3 2d be 61 09 30 be 97 a4 50 bd a2 d7 85 bd
       -0.16968954 -0.17191078 -0.050938215 -0.06535269
0001c0 34 e2 83 bd 0e 39 85 3e cc 08 4e be c3 99 d9 bd
       -0.06439629 0.26020092 -0.20120543 -0.10625031
0001d0 53 9f 37 3e 2e 96 b4 3d 20 64 34 be 5a 96 3a 3e
       0.17931871 0.08817707 -0.1761632 0.18221417
0001e0 87 44 dc be c8 86 ba bd 66 52 a8 be 06 62 17 3e
       -0.43021032 -0.09107739 -0.32875365 0.14783487
0001f0 23 1f c7 bd 0a c8 8b be 52 0d 9c 3e ec 49 f0 bd
       -0.09722736 -0.27301055 0.30478913 -0.117328495
000200 80 9a 33 3e 11 74 49 3e b3 8e 36 3c 9f 70 49 be
       0.17539406 0.19673182 0.011142421 -0.19671868
000210 78 f7 9c bc 16 06 58 bd 70 68 da 3c c0 0f 7c 3e
       -0.019160971 -0.05274018 0.026661128 0.24615383
000220 91 d1 15 3e 4b b2 1f 3d 3f 18 8c 3e b3 65 9d 3e
       0.14630724 0.038988393 0.27362248 0.30741653
000230 cb d8 e2 3d fb 5d b6 3d 3f f8 dc 3c c2 a8 b9 bd
       0.11076506 0.08904644 0.026973842 -0.09065391
000240 1f df 1e 3b d8 4d 96 be 16 e4 13 3e 92 46 cc 3d
       0.0024241877 -0.29356265 0.14442477 0.09974398
000250 1e 89 17 3e 72 d9 f1 bc c2 e3 ac 3e 75 a5 e4 3a
       0.147984 -0.029522631 0.33767515 0.001744433
000260 11 6c a9 3e 09 2c a6 3d eb 4e 8c 3e 07 3e f7 bd
       0.3309026 0.08113868 0.2740396 -0.12072378
000270 da a1 62 be b7 00 93 3e 73 5d 27 be e5 b6 e2 3c
       -0.22132054 0.28711483 -0.16344242 0.027675102
000280 92 ba 40 3e 2b 98 56 3e cf 38 b3 be 3f ad cb be
       0.18821171 0.20956485 -0.3500428 -0.39780614
000290 a2 66 a3 be 72 08 88 be 12 66 67 be a4 3f 01 be
       -0.3191424 -0.26568943 -0.2259753 -0.12621933
0002a0 24 ee ab bd 19 57 b1 be f9 77 c9 bd e7 da c2 3b
       -0.08395031 -0.34636763 -0.09837336 0.0059465053
0002b0 fa 5f 66 3e ba 8f 92 be 37 a5 43 be 9d 4f 63 bd
       0.2249755 -0.2862528 -0.19105993 -0.055495847
0002c0 a2 26 7d be 6a de 08 be 08 49 00 be 7a de 40 bd
       -0.24721768 -0.13366094 -0.12527859 -0.04708717
0002d0 c6 af dc be cd 64 5d be ee d2 24 be af 81 00 be
       -0.43102854 -0.21620484 -0.16096088 -0.1254947
0002e0 7a d3 c2 3e d6 d0 64 3d 55 b6 d3 bd 78 06 b5 be
       0.3805197 0.055863224 -0.103375115 -0.35356498
0002f0 92 0b 18 3e 50 24 84 3d 4d 00 4e be db 62 ad be
       0.14848164 0.064522386 -0.20117302 -0.33864483
000300 49 eb 99 bd 82 53 5f be 78 f0 4a be dc ef b2 be
       -0.0751558 -0.218092 -0.19818294 -0.34948623
000310 e7 61 9b 3c 2b fd fb bd 53 07 a4 be ef 14 a1 bd
       0.018967582 -0.12304147 -0.32036838 -0.07865321
000320 24 f0 0b 3d 99 5e cc bd 45 f5 eb bd 43 9f 83 bd
       0.034164563 -0.099789806 -0.11521391 -0.06426861
000330 a7 95 94 3e d3 71 66 be fe 61 12 bd 17 c0 a0 3c
       0.29020426 -0.22504358 -0.035737984 0.019622846
000340 45 71 cc bd 0b e5 6d 3e 7f 24 70 be 2f 33 15 3e
       -0.09982542 0.23231904 -0.23451422 0.14570306
000350 0e 4e 20 bd 66 3e 1f bb 5c f7 85 be cd 5b 8e be
       -0.03913694 -0.0024298667 -0.26165283 -0.27804413
000360 63 8c 8e 3e 31 72 e8 bd e4 27 32 3e 2f cd 98 3d
       0.27841482 -0.11349905 0.1739803 0.07461011
000370 1e ee 3d bd 2e 74 3f 3e 0b ef 9a 3d 20 eb 18 bd
       -0.046369664 0.18696663 0.07565125 -0.037333608
000380 6d f2 cc 3e 6b fc 64 3d f1 0a e9 bc cd 66 09 bf
       0.40028706 0.055904787 -0.0284476 -0.53672487
000390 82 0b cb bc 61 09 af be b9 d3 74 be 04 cd 2f bd
       -0.02478576 -0.34186843 -0.23908891 -0.042920128
0003a0 f2 d0 64 be 6d d8 74 be f0 09 9d bd b3 35 fe 3c
       -0.22345331 -0.23910685 -0.07667911 0.031031465
0003b0 89 96 10 3e 3a db 9e bd 46 d7 1b be 7b fa 88 3d
       0.14119925 -0.07756658 -0.15218839 0.066884
0003c0 b8 a1 d8 bd f0 7d ba bd 9d f5 a2 3d fd dc 8a be
       -0.105777204 -0.09106052 0.07957003 -0.27121726
0003d0 e3 9c 9e be 68 05 da bc 73 1c 3b be 01 c7 e6 bc
       -0.3097907 -0.026613906 -0.18272571 -0.028171064
0003e0 88 16 82 3e 2b 6d 03 bc 0f 18 0d bc d4 61 bd be
       0.25407815 -0.008021633 -0.008611693 -0.369887
0003f0 7e 44 8d be f2 61 a7 3d c2 73 8d 3d e2 ba 4c be
       -0.27591318 0.081729785 0.06906845 -0.19993165

dual_encoder.vencoder.layers.0.shared.q_linear.bias f4 [32]
000000 af e3 9a bd 3c b0 7c 3e f7 71 7a 3e d2 5b f5 bd
       -0.075629584 0.24676603 0.24457537 -0.11980404
000010 eb bc 4c 3e 3c 8f 07 bd bb 76 40 3e 05 21 71 3d
       0.19993941 -0.033095583 0.18795292 0.05886938
000020 f0 b2 16 be 6f 49 9e bd 99 dc 0c be d0 bf 7f bd
       -0.14716697 -0.0772885 -0.13756026 -0.062438786
000030 b3 94 1e be 8f 1d 00 3d 3d 7f 1e 3d d5 0a 2c be
       -0.15486412 0.03127819 0.038695563 -0.16801007
000040 69 5e 14 3d 15 29 d9 bd f8 31 98 bd ea d5 5d 3d
       0.03622285 -0.10603539 -0.07431406 0.054159082
000050 27 86 90 be 99 7d 5c be 8c 25 0f be 16 01 95 be
       -0.2822735 -0.21532287 -0.13979167 -0.2910239
000060 1f 5d 5d be 79 92 41 3e 25 67 81 3c 8a 17 fe bd
       -0.21617554 0.18903531 0.015796253 -0.124068335
000070 b7 0a ad be 13 46 4f bd 32 c0 8e be 30 e8 f4 3d
       -0.33797237 -0.050603937 -0.27881008 0.11958349

dual_encoder.vencoder.layers.0.shared.k_linear.weight f4 [32, 32]
000000 e4 dc 26 be e1 c2 20 3e ff 62 89 be 22 bf 48 3e
       -0.162952 0.1569934 -0.2683334 0.19604161
000010 fc c4 8b bd 26 32 92 3b c0 60 8f bd 1b 8c 17 bf
       -0.06824681 0.0044615446 -0.070008755 -0.5919816
000020 4a 72 bd bd 81 30 7c be d1 9f 0c be e1 9c 11 bd
       -0.092503145 -0.24627878 -0.1373284 -0.035550002
000030 24 9e 77 3e 8f 4b b7 3d 9d 0e 3a be 08 0a dd 3c
       0.2418142 0.089499585 -0.18169637 0.026982322
000040 af 56 b5 3e 1d 8a 8b 3e 9f 16 a8 be 4a 11 76 be
       0.35417697 0.2725381 -0.3282976 -0.24030033
000050 01 1b 37 be 18 88 d8 bc 01 e2 10 bc b4 e6 b4 3d
       -0.17881395 -0.026432082 -0.008842946 0.08833066
000060 21 0a b1 bd 26 ce 00 3d 46 0e dc be f7 b3 97 3e
       -0.0864451 0.0314466 -0.4297964 0.2962949
000070 60 0d 88 3e ab 88 38 3d 65 f2 74 be 34 33 6b be
       0.26572704 0.04505221 -0.23920591 -0.22968751
000080 61 53 3c 3e 2c 2c a7 bd 60 02 29 3e 1f 1f 59 3e
       0.18391182 -0.08162722 0.16504812 0.21203278
000090 4c c0 2d be 30 13 d0 3c 1e 83 38 bd b1 78 09 3d
       -0.16967887 0.025399774 -0.045046918 0.033562366
0000a0 4e 0e e1 3b 65 48 c1 3c 95 4d 1a 3e 3d 3d 9e 3d
       0.0068681603 0.02359409 0.15068658 0.07726524
0000b0 22 c6 d0 bd 63 40 07 3e c2 05 78 3e 4d fe f2 3c
       -0.10194041 0.13208155 0.24220946 0.029662276
0000c0 aa 43 e7 3c cb 43 af 3e 6b 81 81 3e c9 a3 91 bd
       0.028230507 0.3423141 0.2529405 -0.07111318
0000d0 77 06 a5 bd ef 7d 20 be 3b d8 35 3e ef 48 c1 3d
       -0.08057874 -0.1567304 0.17758267 0.09437739
0000e0 fb bf 23 bc 68 c6 10 bd 49 8d b9 3b 2b de 5c 3e
       -0.009994502 -0.035345465 0.0056625945 0.21569125
0000f0 ad 34 ac 3c e7 88 09 bd 20 c8 cc 3d 44 8e 96 bd
       0.021021212 -0.033577826 0.09999108 -0.07351354
000100 b9 44 50 be 02 8c e1 3d 5a 6a 55 3e bb 05 f3 bd
       -0.20338716 0.110130325 0.20841351 -0.118663274
000110 1e d6 5a bd 68 e9 a8 3c ac ce 5a 3d bb 4f 3b 3e
       -0.053426854 0.02061911 0.053419754 0.18292134
000120 c8 46 27 3e 77 d3 a2 3e 8d d8 3e 3e 47 5c 7a 3e
       0.16335595 0.3180196 0.18637295 0.24449264
000130 81 d5 74 be d1 d1 d3 3d 57 e7 98 3c 53 cb 39 bc
       -0.2390957 0.10342754 0.018664999 -0.01133998
000140 a6 1c 87 be 6b 17 92 3d 43 ce 8b 3d 0a 06 1b 3e
       -0.26389045 0.07133373 0.06826451 0.15139022
000150 4c b0 02 bc 01 6e 6e be f1 45 8e 3e 9f 60 c4 3e
       -0.007976603 -0.2328415 0.27787736 0.38354966
000160 2c c8 54 3e be 08 c8 3d fc 97 61 3e 48 a2 d4 bd
       0.20779485 0.097672924 0.22030634 -0.10382515
000170 7f 6a b4 bd 79 2b de 3b b8 46 3c 3e 01 7d 4f 3e
       -0.08809375 0.0067800847 0.18386352 0.20262529
000180 a7 63 45 bd 4d df ae bd b4 2f ba 3d 5a b1 80 bd
       -0.04819074 -0.08538685 0.0909113 -0.06283827
000190 0b 2e 29 3d de 3a 63 bd 35 e1 41 3d 53 db a2 be
       0.041303676 -0.055476062 0.047333915 -0.31807956
0001a0 75 c6 f2 bd c6 db b6 be 90 34 8f be 4a 81 03 be
       -0.11854259 -0.3571455 -0.2796979 -0.12842289
0001b0 d9 a2 92 3e 24 b8 1d bd 99 90 57 be 49 3b 28 be
       0.28639868 -0.03850569 -0.21051253 -0.16428865
0001c0 e9 d8 90 bd 52 47 4e 3e fd 14 6f be b5 86 5e 3e
       -0.07072622 0.20144394 -0.2334785 0.21731074
0001d0 13 64 55 be 9a f8 43 be 6d 1e c1 bc 60 60 8c be
       -0.20838957 -0.19137803 -0.023574078 -0.27417278
0001e0 e8 90 b8 3e d4 96 f9 bc 5f 35 15 be e5 04 5b be
       0.36048055 -0.030467428 -0.1457114 -0.21388586
0001f0 99 3e a8 bd 36 de 39 bc e7 01 7e 3c 77 89 8c be
       -0.082150646 -0.011344483 0.015503383 -0.27448627
000200 86 cf af bd 26 3e bc 3c 72 e3 5b bd 2e 07 76 3d
       -0.08584504 0.022978853 -0.053683706 0.06006544
000210 51 85 64 be 3e ee 75 3d 91 a2 0b bd 2e af 80 3d
       -0.22316481 0.06004166 -0.034090582 0.06283413
000220 7f ad 95 bd d9 0b 68 3e bb 98 8d bc c9 a1 51 3e
       -0.073084824 0.2266077 -0.017284742 0.20471872
000230 35 36 d5 b9 8b b8 0c 3e 94 85 97 3e fc 00 82 3d
       -0.00040666913 0.13742273 0.295941 0.06347844
000240 25 4f c3 3e 78 f0 e2 3d 57 d4 29 3c 64 6a 93 be
       0.3814632 0.11081022 0.010365567 -0.28792107
000250 6c bf 98 bd c6 0a 89 3d a7 ed a5 3d 7d 0f 1b 3e
       -0.07458386 0.06691508 0.08101969 0.15142627
000260 3d 1f 74 be 3a d9 90 3d 52 05 f2 3d 48 cf c8 3d
       -0.23840041 0.07072683 0.11817421 0.09805161
000270 7f 26 e7 3d 94 d4 95 3d 0a 5a aa bd e9 de 20 be
       0.112866394 0.07315937 -0.08317955 -0.15710033
000280 fb bb 32 3c 44 eb 23 be 57 95 ca 3e 70 47 fb be
       0.010909076 -0.16007715 0.39567062 -0.4907794
000290 a7 85 83 bd cb 68 c5 bd 61 cf 80 3e 23 c3 e7 3e
       -0.064219765 -0.09639128 0.25158218 0.45266065
0002a0 aa 2d a4 3d c4 76 95 3d 13 00 28 3e 3a 77 22 3e
       0.08016522 0.07298043 0.16406278 0.15865794
0002b0 a9 1c 26 bd 2f b8 c7 ba 6d 29 64 3d e5 2b a3 3e
       -0.040554676 -0.0015237386 0.05570357 0.31869426
0002c0 45 1a 8f be 66 dc 14 bf d5 b7 02 3e 21 50 81 3e
       -0.2794973 -0.581488 0.12765439 0.25256446
0002d0 e1 52 4d 3e 9e 50 d6 3d 8c ed 35 bc 9b 69 06 3e
       0.20051147 0.10464595 -0.011103999 0.13126223
0002e0 89 b2 a1 3e 98 94 9f bd b8 78 f8 3e 20 d7 a2 be
       0.31581524 -0.07792014 0.485296 -0.31804752
0002f0 4c 04 49 be e6 29 80 bd c1 2f e5 bd 47 9f b2 3e
       -0.19630545 -0.062579915 -0.11190749 0.34887144
000300 b7 7a e6 bd 20 44 6a bd 30 8d ce 3e df 34 54 bd
       -0.11253875 -0.057193875 0.40342093 -0.051808234
000310 f1 70 56 bd 21 92 c9 bc c6 ef a6 bd e3 d6 88 3e
       -0.052353803 -0.024605813 -0.08151202 0.26726446
000320 90 fe 67 3e d8 e4 74 3c b3 f5 8b 3d 8b 2c 25 3e
       0.22655702 0.014947139 0.06833973 0.16130273
000330 15 0b e2 3c b5 d1 88 bc 7b f7 ff 3d 5d f9 e7 3d
       0.027593175 -0.016701559 0.12498375 0.11326859
000340 97 eb a1 be 1b ea 09 3e 52 a9 15 3e 76 8f 8a 3e
       -0.31625053 0.1346821 0.14615372 0.27062577
000350 ea 1f af 3d 21 16 1f 3e 40 c5 69 bd 52 07 20 be
       0.08551009 0.15535785 -0.057072878 -0.15627792
000360 c5 dd 8b 3e a6 08 e8 3d cd 97 b4 3d fe f7 4b bd
       0.27317634 0.113297746 0.08818016 -0.04979705
000370 a1 55 de bd 25 fd 3f 3e 88 0e 82 3d 92 71 4e 3d
       -0.10856176 0.1874891 0.06350428 0.050401278
000380 95 2f 19 3e 2c 35 19 3e ab 32 3b bb ed 35 03 be
       0.14959557 0.1496169 -0.0028564136 -0.1281354
000390 98 d5 4d bd 42 1a 4e bd ee ca 87 bd cd 72 85 3e
       -0.050252527 -0.05031801 -0.06630503 0.2606415
0003a0 82 9f da bd 67 83 3e bc 0f 2b d1 3a 5b d5 1c 3e
       -0.10674955 -0.011628008 0.0015958267 0.15315764
0003b0 60 4c a3 bc f6 27 c5 bb a5 da ee bd 7b e0 bc 3d
       -0.01993388 -0.0060167266 -0.11662797 0.09222504
0003c0 05 c6 2a be 6a fd 44 be dc a0 78 3e 16 e0 bc bd
       -0.16677101 -0.19237295 0.24280113 -0.092224285
0003d0 26 0b 71 3e fd 5b 88 bd 58 42 8a 3d 52 cd a0 bd
       0.23539409 -0.0665817 0.06750935 -0.07851662
0003e0 51 6e f7 ba 06 28 4e be c4 c3 72 3e f5 0e cc be
       -0.0018877481 -0.20132455 0.23707491 -0.3985516
0003f0 0c 7b 72 be 42 17 fd 3d bd 81 84 3d 9b db 4e 3e
       -0.23679751 0.12357952 0.06470058 0.2020096

dual_encoder.vencoder.layers.0.shared.k_linear.bias f4 [32]
000000 ec e1 f8 bd 38 bf c6 3d c3 d1 e3 3d 1c 04 dc bd
       -0.12152466 0.09704441 0.11123993 -0.10742971
000010 21 9e e9 3d 9e 86 7e 3e 7a d4 33 bd 94 e6 29 3e
       0.11407114 0.2485604 -0.043903805 0.16591865
000020 d6 c6 41 3e 92 86 30 bd 67 37 f3 3d 68 cd 75 bd
       0.18923506 -0.043097086 0.118758015 -0.060010344
000030 30 67 68 be be ae eb 3d f6 87 6e 3e bb 4b 36 ba
       -0.22695613 0.11507939 0.23294052 -0.0006954034
000040 04 d1 1c 3d 10 73 ac 3d 9e 3a 84 be 5c 4a 8c 3e
       0.03828527 0.08420384 -0.2582597 0.27400482
000050 15 51 d3 bd 7c 6a 68 3e f2 1c 86 3e 5e 28 82 bd
       -0.103181995 0.2269687 0.2619396 -0.06355356
000060 54 d6 81 be e5 04 fa bd 7a 7c b7 be a1 ad 53 3e
       -0.25358832 -0.12207965 -0.35837156 0.20671703
000070 8f e5 26 bd ec 71 97 3e d0 2e 60 be 30 a7 6a 3e
       -0.040746268 0.29579103 -0.21892858 0.2291534

dual_encoder.vencoder.layers.0.shared.v_linear.weight f4 [32, 32]
000000 32 b4 12 be f9 41 b0 be 47 66 bb ba 19 cf 0b 3e
       -0.14326552 -0.34425333 -0.0014297449 0.1365322
000010 17 9f e1 bd 9f a8 a2 3d 8a d4 ae 3d 19 29 ab bd
       -0.11016672 0.07942318 0.08536632 -0.08357448
000020 b7 8c 9d bd 06 91 28 bd 7a 84 c4 bd 2b bf d1 3d
       -0.07692855 -0.04115393 -0.095955804 0.102415405
000030 b7 dc 3e bd 33 ba ca bd 89 26 07 be 96 65 25 3d
       -0.04659721 -0.09898796 -0.13198294 0.040380083
000040 14 7c a0 bd 53 3c 24 3e 4f b3 f0 3d 53 f5 18 3e
       -0.07836166 0.16038637 0.117529504 0.14937334
000050 c7 01 16 3b 22 10 13 3d c7 46 cd 3d 3a 9a db bd
       0.0022889243 0.035904057 0.10023265 -0.10722776
000060 87 fa 6f 3e 8e 89 1e bd 31 80 23 3e 1b ae 6c 3b
       0.23435412 -0.0387054 0.1596687 0.0036114517
000070 1a 7c 8d bc 12 d4 84 3d 8e 60 0e 3e 6f 8c 4a 3e
       -0.01727109 0.06485762 0.1390402 0.19780134
000080 bb b9 17 3e 25 13 67 be ef 49 53 bd 49 5d 8a bd
       0.14816944 -0.22565897 -0.05158418 -0.06756074
000090 71 7b 09 be 43 54 bf bd b3 0c 43 bc f4 f7 b0 3d
       -0.13425995 -0.093422435 -0.011904883 0.08641043
0000a0 20 a7 8c 3b 62 d4 1a be 33 14 df bd 9d 01 1b 3e
       0.004292384 -0.1512008 -0.108925246 0.15137334
0000b0 fc 16 29 bc f8 8e 86 3d 05 0a 5b 3d 18 50 80 bc
       -0.010320421 0.06570238 0.053476352 -0.015663192
0000c0 6c b7 b6 bd af 77 4c be da fb 01 be b6 78 0b 3e
       -0.08921704 -0.1996753 -0.1269373 0.13620266
0000d0 5e 0a 1c 3e 3d 83 76 3d 1f b5 df 3b 5b d8 9e 3c
       0.1523833 0.060183752 0.0068270112 0.019390276
0000e0 49 4b 14 be 3c 41 7a 3d 5b 6e 38 3a 18 f6 2e bd
       -0.14481844 0.06109737 0.0007035487 -0.042715162
0000f0 04 f3 dc 3d 63 7a 8e 3d 2f c7 4b bd 7a e0 b1 bc
       0.10788539 0.06956937 -0.049750503 -0.021713484
000100 a4 0c 3f bd b1 2b 24 be 06 53 82 3d 16 5e cd bd
       -0.046642914 -0.16032292 0.06363492 -0.10027711
000110 36 5a 34 bd 3e 3d 34 3e 30 02 eb bd 55 12 36 3d
       -0.044031344 0.17601487 -0.114750266 0.044451077
000120 0e 84 66 3c 1c 63 4e 3e cd 27 4c 3e a9 52 81 bd
       0.01406957 0.20154995 0.19937058 -0.06314594
000130 30 0a 17 bd 08 66 cb bd 7d 72 41 bc bb 2d 47 bd
       -0.03687495 -0.0993157 -0.011807081 -0.048627596
000140 7a b8 f6 3d 53 19 1e bd 23 5a 24 3e 13 d4 df 3d
       0.12046905 -0.03859837 0.1605001 0.10929122
000150 26 01 2b bd 29 70 d9 3d 40 96 1c 3e f3 9d 12 bd
       -0.041749142 0.10617096 0.15291691 -0.035795163
000160 df 93 47 3e 68 56 45 bd 95 6d 76 bd ce 9a c8 3d
       0.19490002 -0.048178107 -0.0601631 0.09795152
000170 72 d2 24 bd eb a9 98 3d 9f e6 e8 3d df fd 2f 3e
       -0.04023976 0.07454284 0.113721125 0.17186688
000180 0c cc fc 3d 93 0a 43 3e df d4 80 bc df b5 dc bd
       0.12343606 0.19047002 -0.015726505 -0.10776877
000190 e5 ca 45 3c 92 78 53 bd c9 b9 a3 bc a4 55 9b 3c
       0.0120723 -0.051628657 -0.01998605 0.018961735
0001a0 77 cf c9 3c b2 22 86 bd e6 79 ba bd f0 4f 9a 3d
       0.02463506 -0.06549586 -0.091052815 0.07534778
0001b0 2f c4 f1 3d 3b 6f 13 be 86 df 66 bd b0 4e 18 3e
       0.11804997 -0.143979 -0.056365512 0.14873767
0001c0 ba c7 79 bd 01 55 68 3d 39 56 ce bd de d1 cb 3d
       -0.06098149 0.05672169 -0.100750394 0.09952138
0001d0 c9 a4 da bd 3a 66 10 3e 81 09 0f 3d da 23 dc bd
       -0.106759615 0.14101496 0.034921173 -0.10749026
0001e0 35 4c 89 bd e5 a6 7b bc 2c f1 d8 3d 27 7e de 3d
       -0.067039885 -0.015359615 0.10592875 0.108639054
0001f0 1a 5d 08 bd ed 1f 26 bd 1f 8a f3 3c 0f 3b 60 bc
       -0.033291914 -0.04055779 0.029728947 -0.013685956
000200 4d 57 b0 3d 14 d6 89 be b4 28 27 3e b0 3f 19 3d
       0.08610401 -0.2692114 0.16324121 0.037414253
000210 59 77 80 3d 8f 53 d9 3a 2b 62 99 bc a9 7c ae 3d
       0.06272764 0.0016580689 -0.018723568 0.08519871
000220 ca 15 3b 3e cc a6 b8 bd 4a c2 b3 3c 58 de 21 bd
       0.1827003 -0.09016189 0.02194323 -0.039518684
000230 9f 54 1d be 77 1d 46 be 58 20 e0 bd 96 30 d0 bd
       -0.15364312 -0.19347177 -0.10943669 -0.10165517
000240 e4 d4 05 be 95 02 ed 3c ca 9a 60 be 7a 28 7d 3d
       -0.13069493 0.028931895 -0.21934047 0.06180618
000250 67 cb a6 3d 66 5f 79 3d 4d ab 1a bd ae 21 18 3d
       0.08144265 0.060881995 -0.03776102 0.037141494
000260 4b 8b 6d 3d 45 2f c1 3c 43 69 26 3e 6b 8f 17 bc
       0.05799417 0.02358211 0.16251092 -0.009250502
000270 a9 12 c9 bd 32 c1 03 3e 90 e9 1c be df 47 18 be
       -0.09818012 0.12866667 -0.15323472 -0.14871167
000280 f3 10 24 3e 3a 98 01 be 37 1f 95 bd 5f 61 2f be
       0.1602209 -0.12655726 -0.072813444 -0.17126988
000290 ae 40 5e bd b4 47 8c 3d dd a0 ce 3d eb 6c b3 bc
       -0.054260902 0.06849614 0.10089276 -0.021902522
0002a0 07 ae 0a bd 98 87 a2 3d c5 1b e7 bb 30 08 97 3d
       -0.03385737 0.07936019 -0.007052871 0.073746085
0002b0 ce d6 a0 bd 0e e3 ad 3d ef 2c a7 3d 11 ca e9 3c
       -0.07853471 0.08490573 0.08162867 0.028538736
0002c0 de 1c 26 bd c8 a9 ea 3d 60 b9 1a 3d aa ec eb bd
       -0.040554874 0.114581645 0.037774444 -0.115197495
0002d0 f8 20 c1 3d 7c 7b 9d bd 35 21 dc bd 3b 26 57 bd
       0.094301164 -0.076895684 -0.10748521 -0.052526694
0002e0 41 0a ef bd 40 17 e9 3b e2 ac b8 bd e2 37 5e 3e
       -0.11671878 0.0071133673 -0.0901735 0.21701005
0002f0 97 74 c2 3d 83 5f fe 3d 9e 18 9c be 3f 1b 1e 3e
       0.09494894 0.12420561 -0.3048753 0.15440081
000300 3d 18 f1 3d 3b 7c 05 3d 3c 47 44 be 49 d5 9e bd
       0.11772201 0.03258918 -0.19167799 -0.07755525
000310 43 4e 24 3a 18 eb 0c 3e 4a 39 1f bd ca e0 28 bc
       0.00062677654 0.13761556 -0.038872994 -0.0103075
000320 d1 fe 45 3d c2 4a 1e be 6e d8 b5 3d 65 cd 8a bd
       0.048338715 -0.15458205 0.08879171 -0.06777457
000330 ed 8d 40 bd 7e 00 5b 3c be 37 04 3e 99 9e 4e 3d
       -0.04701035 0.013366817 0.12911889 0.05044422
000340 47 10 a1 bd b9 dc 47 be 91 39 85 3d 32 ca 00 3d
       -0.07864433 -0.19517793 0.065051205 0.03144283
000350 3f 19 ea bd 40 c1 3f be bf 18 5e bd 82 cd 21 3e
       -0.114305966 -0.18726063 -0.05422282 0.15801051
000360 6a 6a 55 3d 27 58 17 be 9c 0f 30 bd 36 ed 2f 3e
       0.052103437 -0.14779721 -0.042983636 0.17180333
000370 a9 3c 14 3e d3 12 cc 3d b2 7c 25 be fa a7 d2 3d
       0.14476265 0.09964528 -0.16160849 0.10285945
000380 60 07 1c bd c2 71 6b 3d 28 cf 51 3b 97 8d a4 3d
       -0.03809297 0.057481535 0.0032014344 0.080348186
000390 52 b1 06 3e 39 1d e7 bb 5e 01 87 3d 2a bd 3f 3e
       0.1315358 -0.007053044 0.06592058 0.18724504
0003a0 0d 22 06 be 76 1a 06 be d5 5f 0a 3c 45 0d a0 3d
       -0.13098927 -0.13096032 0.0084457 0.07815031
0003b0 ba 3a 30 3e ad 02 d3 bd 9c 29 16 3d 8d c3 35 3d
       0.17209902 -0.10303245 0.036660776 0.044375945
0003c0 f9 58 48 3d f8 74 53 be 46 bb b9 bc 7e d0 a7 bd
       0.048912976 -0.20650089 -0.022672307 -0.081940636
0003d0 49 4f 09 be 7d 79 9d 3d 7e 26 66 bd ec 37 f4 3d
       -0.13409151 0.07689188 -0.056189053 0.11924729
0003e0 b4 00 81 3d f4 e6 02 3e 12 ea e4 bd 3d 78 10 be
       0.06298962 0.12783414 -0.11177458 -0.14108367
0003f0 97 50 89 bc 3b 08 28 be 3b dc 8f be 31 d7 51 bd
       -0.016762061 -0.1640939 -0.2809771 -0.051230613

dual_encoder.vencoder.layers.0.shared.v_linear.bias f4 [32]
000000 6d 37 b9 bd 85 5f 31 3e ec c5 de 3c e8 24 67 bc
       -0.09043775 0.17321594 0.027193986 -0.01410792
000010 0d 20 88 bd df 9e 09 bd 32 2d 01 3c 5c fe fe 3d
       -0.06646738 -0.033598777 0.007884311 0.12450859
000020 cc d2 28 3d 75 32 2c 3d 38 69 99 3b 2f 28 0b be
       0.041216657 0.042040307 0.0046817325 -0.13589548
000030 4d 0b 78 bd d8 0c 1b 3e 26 81 d7 bc 33 42 70 3d
       -0.060557652 0.15141618 -0.0263067 0.058656882
000040 53 7a c8 3d f8 a5 9c 3d fc 9c d3 bd 3c d1 08 be
       0.097889565 0.076488435 -0.10332677 -0.13361067
000050 ac 40 1f be 28 ad aa bc 79 c2 17 3e 7f f6 be bd
       -0.15552014 -0.02083452 0.14820279 -0.09324359
000060 14 9c da 3c 79 53 5b bd 8e 9f a6 bd ee 47 0a be
       0.026685752 -0.053546403 -0.081359014 -0.13504001
000070 df c7 a1 3d e6 75 f4 3d bb 66 3e bd a5 55 2c 3d
       0.078994505 0.1193655 -0.04648469 0.042073864
