final_model.pth (torch, 237777 bytes, 85 tensors)

feature_preprocessor.network.0.weight f4 [64, 26]
0.087454565 0.11772757 0.1786254 0.01621595 -0.057015944 0.10011904 0.0913547 0.1313446
0.082699835 0.0061472273 0.08329177 0.013033152 -0.13176274 0.035799082 0.12283343 0.12821229
-0.31052473 0.35852197 0.12122722 0.16517349 -0.074714996 0.11037857 0.0031816761 -5.9794504e-05
-0.015270648 0.123182714 0.07108658 0.1428457 0.10819032 -0.061773878 -0.036005225 -0.03934864
-0.10254937 -0.07118317 0.04606426 0.0020764614 0.008553989 -0.00014714694 0.09359766 -0.03396052
-0.04375893 0.13528545 0.17954916 -0.09261161 0.15377535 0.04949632 0.0054188324 0.08579209
0.06682155 -0.115616105 0.27466473 0.23496048 -0.05777114 -0.11589447 -0.10708086 -0.07802495
-0.118966065 -0.06775963 -0.0305909 0.23706372 -0.075964876 0.12730402 -0.009042251 0.06875358
0.21466927 -0.06409116 -0.15853532 0.15975401 -0.13540478 0.062411897 -0.044616584 0.07268029
-0.024165442 -0.0979048 0.0043514557 0.12509419 -0.16156067 0.020097889 0.05497087 -0.08904615
-0.09371266 0.019356253 0.10998945 -0.05996389 -0.0032169113 0.067229204 0.15729885 0.14022681
0.085281454 -0.017384883 0.012548132 0.11296692 -0.25262678 -0.09970419 -0.067555346 0.08541476
0.03532923 -0.09256233 0.031007718 -0.106072195 -0.057668135 -0.07704271 0.16782261 0.3179662
0.101674065 0.11326203 0.2138475 0.1566553 0.14340971 0.01845032 -0.06761188 -0.09036649
0.14664163 0.101977155 0.13772468 -0.02347169 0.12349845 0.11189661 0.12406918 0.061361924
0.05498149 -0.01521627 -0.009231745 -0.107170954 0.0827992 0.04630401 0.11604182 0.09734158
-0.4805567 0.116958946 0.040108494 0.12998962 0.081445575 -0.032003213 -0.18884443 -0.042607557
-0.12936996 -0.030755853 0.1463158 0.01985157 -0.18661578 -0.062093098 -0.09196143 0.09965019
0.013340522 -0.11306173 0.09910286 -0.16782226 -0.14364517 -0.05291593 0.093534045 0.03772496
-0.046940528 -0.15020908 0.19795796 0.028376004 0.23474814 0.1402726 0.060332555 0.185129
0.0409163 0.07302799 0.25834343 0.011442412 0.06680662 -0.038903408 0.10256432 0.16968587
-0.020468425 0.25616902 -0.049569998 0.03395042 0.10352771 0.11159473 0.09807845 0.11977075
0.099492945 0.09906707 0.14676063 0.11352177 -0.39140055 -0.1647911 0.105938695 0.089649625
-0.038148224 0.22292978 0.25186315 0.110997766 -0.069877565 0.16954386 0.066816606 0.14747633
0.02309695 0.06752225 -0.042077877 0.039868113 0.13792963 0.14677846 0.17753834 0.06463704
-0.028108858 0.0012162279 -0.095410116 -0.037262302 -0.13799265 -0.10549636 0.2722378 -0.14765029
-0.0061010183 0.10379449 -0.082843795 -0.041995116 0.028061958 0.101603664 -0.054975897 0.15585032
0.10460946 -0.07500866 0.08608644 0.064084634 -0.06350393 0.009348994 0.09974843 -0.10511649
0.1559792 0.13376412 0.09934282 0.16673085 0.05023565 -0.16218008 -0.10189941 0.16133642
-0.0070780073 -0.035400935 -0.013878185 -0.057791412 -0.04803817 -0.18856677 -0.124656245 0.07040112
0.10590258 -0.080189586 -0.16067675 -0.048195384 -0.007952685 0.013686243 0.3232582 -0.10192411
0.14155556 -0.07724291 -0.035697885 -0.07675022 0.08937303 0.12300674 0.18058042 -0.29715478
00000000: 611b b33d 271b f13d 94e9 363e 50d7 843c
00000010: 8d89 69bd 360b cd3d 2c18 bb3d 337f 063e
00000020: 885e a93d ae6e c93b e094 aa3d 0089 553c
00000030: d0ec 06be 0fa2 123d 1890 fb3d 154a 033e
00000040: 19fd 9ebe 3190 b73e fa45 f83d 3d23 293e
00000050: 2d04 99bd 290e e23d ab83 503b dccb 7ab8
00000060: bd31 7abc 3847 fc3d d795 913d 2546 123e
00000070: e392 dd3d 9b06 7dbd 377a 13bd 0a2c 21bd
00000080: 6705 d2bd 7bc8 91bd e1ad 3c3d 3e15 083b
00000090: 0826 0c3c 754b 1ab9 21b0 bf3d 301a 0bbd
000000a0: 903c 33bd 4588 0a3e bcdb 373e 28ab bdbd
000000b0: 4977 1d3e a7bc 4a3d 7690 b13b c3b3 af3d
000000c0: bdd9 883d 23c8 ecbd dba0 8c3e 7b99 703e
000000d0: 6ea1 6cbd 145a edbd 364d dbbd 8ccb 9fbd
000000e0: 7ba4 f3bd 90c5 8abd c499 fabc d5c0 723e
000000f0: 7993 9bbd fc5b 023e f325 14bc adce 8c3d
00000100: 43d2 5b3e 3a42 83bd 1557 22be 8e96 233e
00000110: 8da7 0abe 9ea3 7f3d e1bf 36bd 67d9 943d
00000120: 9bf6 c5bc 5082 c8bd a896 8e3b b118 003e
00000130: 2970 25be 54a4 a43c 2329 613d d45d b6bd
00000140: 6cec bfbd 0191 9e3c 2642 e13d b29c 75bd
00000150: d1d2 52bb 77af 893d f312 213e 9e97 0f3e
00000160: 0ba8 ae3d be6a 8ebc ae96 4d3c 335b e73d
00000170: 4c58 81be b631 ccbd 755a 8abd efed ae3d
00000180: 62b5 103d 5291 bdbd e603 fe3c 613c d9bd
00000190: 6c35 6cbd 91c8 9dbd b1d9 2b3e 77cc a23e
000001a0: 7e3a d03d ecf5 e73d d7fa 5a3e 3f6a 203e
000001b0: ffd9 123e 2025 973c 1978 8abd 1112 b9bd
000001c0: 3929 163e 66d9 d03d b307 0d3e b447 c0bc
000001d0: c1ec fc3d 0d2a e53d fb17 fe3d a456 7b3d
000001e0: 4534 613d aa4d 79bc bf40 17bc 727c dbbd
000001f0: a192 a93d 46a9 3d3d 55a7 ed3d 065b c73d
00000200: 870b f6be 2c88 ef3d ce48 243d 001c 053e
00000210: f0cc a63d cd15 03bd 6f60 41be 4385 2ebd
00000220: 8f79 04be b3f3 fbbc cfd3 153e c29f a23c
00000230: 3518 3fbe 5555 7ebd 4656 bcbd 6615 cc3d
00000240: 3492 5a3c e98c e7bd 71f6 ca3d 99d9 2bbe
00000250: b817 13be 60be 58bd c78e bf3d 7d85 1a3d
00000260: b644 40bd 69d0 19be 7eb5 4a3e cb74 e83c
00000270: d161 703e 9fa3 0f3e 451f 773d 7592 3d3e
00000280: da97 273d b38f 953d 9745 843e f478 3b3c
00000290: e9d1 883d 2e59 1fbd 3e0d d23d 22c2 2d3e
000002a0: 66ad a7bc 9628 833e e909 4bbd 980f 0b3d
000002b0: 5606 d43d c78b e43d 5bdd c83d 5e4a f53d
000002c0: f5c2 cb3d ade3 ca3d 6b48 163e 1a7e e83d
000002d0: a765 c8be 00bf 28be 63f6 d83d 399a b73d
000002e0: 5041 1cbd b447 643e 35f4 803e cc52 e33d
000002f0: f81b 8fbd e89c 2d3e 25d7 883d 0904 173e
00000300: d135 bd3c 1b49 8a3d da59 2cbd bf4c 233d
00000310: 6d3d 0d3e 184d 163e 9ccc 353e 6d60 843d
00000320: 8c44 e6bc d669 9f3a 6166 c3bd 5ba0 18bd
00000330: f24d 0dbe 7a0e d8bd c162 8b3e a331 17be
00000340: 0deb c7bb 3592 d43d 02aa a9bd 1203 2cbd
00000350: 31e2 e53c 9515 d03d 682e 61bd 3a97 1f3e
00000360: 7c3d d63d 249e 99bd 164e b03d ce3e 833d
00000370: 590e 82bd 862c 193c e848 cc3d 5047 d7bd
00000380: 03b9 1f3e 76f9 083e 4074 cb3d 7ebb 2a3e
00000390: e6c3 4d3d 8912 26be a3b0 d0bd 6035 253e
000003a0: a1ee e7bb 9200 11bd 5461 63bc b0b6 6cbd
000003b0: acc3 44bd a617 41be c64b ffbd 762e 903d
000003c0: 74e3 d83d 703a a4bd 7288 24be 8668 45bd
000003d0: fa4b 02bc 443c 603c 1982 a53e 96bd d0bd
000003e0: f1f3 103e 8831 9ebd f237 12bd 382f 9dbd
000003f0: 3509 b73d f5ea fb3d 13ea 383e ac24 98be

feature_preprocessor.network.0.bias f4 [64]
-0.18460895 0.23963274 0.10074297 -0.0037517312 -0.004324296 0.05468215 0.06895945 -0.064289756
0.1513644 -0.13008775 -0.24955091 -0.09648942 0.13458186 -0.009108911 0.18562578 -0.280635
-0.06427119 0.22757226 -0.0034160393 -0.11729192 0.1438265 0.1136435 0.2533574 -0.14246017
-0.0065437225 -0.079652645 -0.017939677 0.13970625 0.15604962 -0.15117241 0.14800438 -0.17409383
0.20027821 -0.015327836 0.098978914 0.01952818 -0.09370958 0.1847875 0.14182492 0.056910284
0.086632624 0.081903726 -0.19022834 -0.19037962 0.15994897 -0.047567945 0.1882008 0.0824031
0.2077595 0.18624268 0.101785764 -0.048029646 0.10242964 -0.07884562 0.017769542 0.14715677
0.046248082 -0.16990712 0.079235286 -0.054323226 -0.05580467 -0.11581658 0.10875416 -0.12764706
00000000: 210a 3dbe 4962 753e 5552 ce3d 9bdf 75bb
00000010: d3b2 8dbb 64fa 5f3d 9d3a 8d3d 59aa 83bd
00000020: 45ff 1a3e b935 05be 468a 7fbe 3f9c c5bd
00000030: d4cf 093e 8b3d 15bc af14 3e3e 64af 8fbe
00000040: 9da0 83bd b408 693e a1df 5fbb bf36 f0bd
00000050: 4147 133e ecbd e83d 10b8 813e 14e1 11be
00000060: b96c d6bb ed20 a3bd 3bf6 92bc 280f 0f3e
00000070: 79cb 1f3e f1cc 1abe 768e 173e a745 32be
00000080: bb15 4d3e 9b21 7bbc 75b5 ca3d 90f9 9f3c
00000090: cfea bfbd ef38 3d3e 8d3a 113e c21a 693d
000000a0: 726c b13d 24bd a73d 38cb 42be e0f2 42be
000000b0: aac9 233e 9bd6 42bd b6b7 403e f5c2 a83d
000000c0: e8be 543e 67b6 3e3e 0e75 d03d bcba 44bd
000000d0: a2c6 d13d d079 a1bd 6e91 913c 44b0 163e
000000e0: a16e 3d3d 22fc 2dbe 1c46 a23d 0882 5ebd
000000f0: 7093 64bd 3e31 edbd 80ba de3d e9b5 02be

feature_preprocessor.network.2.weight f4 [64, 64]
-0.022881238 0.059693146 0.0986101 -0.09303899 0.072453804 0.030264027 0.124011725 -0.15315263
-0.039282292 0.1393766 0.049174055 0.055645153 -0.011738629 -0.10080206 -0.011811223 0.007895189
-0.011548276 0.0884159 0.02710421 0.07455641 0.026924493 -0.08013325 0.010722858 -0.0090505695
0.09416871 0.06433811 0.04821687 0.022175407 -0.0255382 -0.089494005 0.015764486 -0.08292176
0.04204075 0.08114224 -0.03000873 0.12834343 -0.052441347 -0.119658634 0.017649667 -0.0056625856
0.083127216 0.12225991 -0.11142893 -0.0835113 0.035287306 0.08981503 0.07508996 -0.024930105
0.087183416 0.05851027 -0.14210258 -0.1426025 0.010593195 -0.0036925152 -0.020834878 -0.06380975
0.05187162 -0.12592788 -0.0444872 -0.032701 -0.03475876 0.10138108 0.010869121 0.121025346
-0.12088089 -0.036271103 -0.0026188702 -0.025798853 0.040513225 0.05210967 0.11115551 0.12393292
0.07567413 -0.03870544 -0.005744855 0.00026289411 0.064024344 0.08251165 -0.07156825 -0.030022742
-0.05292232 -0.0021602765 0.0672391 0.12678498 0.05649154 0.15478447 -0.024268322 -0.13120177
-0.08639951 0.06121653 -0.053398162 -0.084184125 -0.030833261 0.0023456854 -0.071015954 0.11022909
0.0008325398 -0.15694045 -0.09842824 0.028760865 -0.039068054 -0.09055648 0.07457467 0.033620454
0.05738496 -0.14292037 -0.07409865 0.03133677 0.038447697 0.058446977 0.04806113 0.11912082
-0.14976585 0.00037262912 0.05725358 -0.13203043 0.063450426 0.21879233 0.038015757 0.062137187
0.074224144 -0.07743174 -0.050627243 -0.025286477 0.0006698258 -0.08502841 0.083395965 -0.08071113
0.08725562 -0.04236053 0.058418583 -0.003687818 0.25778407 0.05435274 -0.100469515 0.047794253
0.023360996 -0.020575559 -0.0543531 -0.007428462 0.06489938 -0.05724023 0.04380802 0.006158622
-0.026882408 -0.08270734 -0.12755768 -0.04688544 -0.011946169 0.13166526 0.04699489 0.11389404
-0.041559823 0.04519718 0.028636638 -0.07702852 0.005616002 0.05724068 -0.06758103 0.028626861
-0.066872835 0.070667535 0.08879726 0.11439786 0.23421896 -0.049259588 0.11078529 -0.028248237
0.0052901944 -0.13775715 -0.063274674 0.07024043 -0.12305874 0.10017486 0.022243805 -0.042000014
0.08511095 0.09332957 0.039761662 0.13567136 0.08832004 0.010438429 0.01164601 -0.11623702
0.1415539 -0.010648698 0.08493047 0.059093036 0.055622432 -0.06748282 -0.16730583 -0.09575048
-0.41845012 0.04039179 0.18221265 0.044669036 -0.1894548 0.03320082 -0.13943778 -0.10425111
-0.09666927 -0.24560241 0.16139793 0.10957015 0.10202573 0.04473405 0.043120544 -0.014062603
-0.039329436 0.047445245 -0.04033003 -0.0746605 -0.018933697 -0.13547726 0.11710562 0.20415273
-0.05748924 0.0155107565 -0.006347577 0.04009953 0.10776651 0.21458115 -0.012332854 0.05479633
-0.09308285 -0.11252288 -0.066649005 0.05181361 0.095726386 0.12831135 -0.19757892 -0.08422839
0.008603183 0.10015554 -0.018840883 0.21959701 -0.045072302 0.051716432 0.034873422 0.026574349
0.010866809 0.00796919 -0.1203511 -0.028267402 0.07883606 0.005416206 0.047663104 0.07518223
-0.049868234 0.060081363 0.0044549834 0.044209074 -0.15791425 -0.09594412 0.04761632 -0.010864308
00000000: 6f71 bbbc cd80 743d 18f4 c93d 3a8b bebd
00000010: a962 943d 44ec f73c dcf9 fd3d 0bd4 1cbe
00000020: 78e6 20bd bdb8 0e3e bc6a 493d 2cec 633d
00000030: 6153 40bc 4f71 cebd dc83 41bc d35a 013c
00000040: fb34 3dbc 6513 b53d a609 de3c 08b1 983d
00000050: c190 dc3c e71c a4bd edae 2f3c d748 14bc
00000060: 86db c03d b3c3 833d 0d7f 453d 33a9 b53c
00000070: 7d35 d1bc a248 b7bd 8624 813c e2d2 a9bd
00000080: ec32 2c3d e72d a63d ded4 f5bc 766c 033e
00000090: bdcc 56bd 960f f5bd 0996 903c 368d b9bb
000000a0: 9a3e aa3d 6763 fa3d da34 e4bd f907 abbd
000000b0: 6c89 103d f1f0 b73d c4c8 993d 383a ccbc
000000c0: 388d b23d 77a8 6f3d 5783 11be 6406 12be
000000d0: 158f 2d3c 20fe 71bb e8ad aabc b0ae 82bd
000000e0: 5677 543d 3df3 00be 3638 36bd 7cf1 05bd
000000f0: 345f 0ebd e2a0 cf3d 6614 323c 23dc f73d
00000100: 6690 f7bd 0291 14bd 5aa1 2bbb 1e58 d3bc
00000110: 32f1 253d f370 553d 80a5 e33d 8bd0 fd3d
00000120: 0afb 9a3d 9889 1ebd 563f bcbb 0dd5 8939
00000130: 321f 833d defb a83d 6092 92bd 41f2 f5bc
00000140: 13c5 58bd 6d93 0dbb a7b4 893d ecd3 013e
00000150: ac63 673d d27f 1e3e 5cce c6bc c259 06be
00000160: 3af2 b0bd 2fbe 7a3d 08b8 5abd ba68 acbd
00000170: 0996 fcbc 12ba 193b d070 91bd cabf e13d
00000180: cd3e 5a3a ffb4 20be bf94 c9bd e89b eb3c
00000190: d305 20bd ad75 b9bd 9bba 983d 9ab5 093d
000001a0: 7e0c 6b3d b859 12be 08c1 97bd fc5a 003d
000001b0: 557b 1d3d 1966 6f3d bfdb 443d 9ef5 f33d
000001c0: 385c 19be 6f5d c339 bb82 6a3d fc32 07be
000001d0: 4cf2 813d 190b 603e 69b6 1b3d 9083 7e3d
000001e0: d402 983d 8894 9ebd 835e 4fbd 9625 cfbc
000001f0: 4097 2f3a 6023 aebd 81cb aa3d e04b a5bd
00000200: 13b3 b23d 3c82 2dbd 5348 6f3d 52af 71bb
00000210: 46fc 833e fba0 5e3d f6c2 cdbd e8c3 433d
00000220: 8f5f bf3c 138e a8bc 5ba1 5ebd 756a f3bb
00000230: f7e9 843d bb74 6abd 0a70 333d 44ce c93b
00000240: 7f38 dcbc 7762 a9bd 7b9e 02be f20a 40bd
00000250: ddb9 43bc 42d3 063e b77d 403d 4741 e93d
00000260: a23a 2abd ae20 393d 6297 ea3c 21c1 9dbd
00000270: 7006 b83b 3475 6a3d ec67 8abd e182 ea3c
00000280: a0f4 88bd 24ba 903d 56db b53d 6d49 ea3d
00000290: 18d7 6f3e 6cc4 49bd 66e3 e23d d968 e7bc
000002a0: 5e59 ad3b 3610 0dbe 2796 81bd 37da 8f3d
000002b0: 3806 fcbd 7a28 cd3d a438 b63c 3508 2cbd
000002c0: a64e ae3d 9323 bf3d 20dd 223d 6fed 0a3e
000002d0: 23e1 b43d f205 2b3c e8ce 3e3c ad0d eebd
000002e0: 81f3 103e e077 2ebc 07f0 ad3d 8a0b 723d
000002f0: 59d4 633d 6f34 8abd 3852 2bbe d418 c4bd
00000300: 183f d6be dd71 253d f495 3a3e e1f6 363d
00000310: 7000 42be 95fd 073d c7c8 0ebe 9b81 d5bd
00000320: 8afa c5bd 337f 7bbe 8045 253e 5166 e03d
00000330: def2 d03d 0d3b 373d 2b9f 303d d566 66bc
00000340: e717 21bd f255 423d 1a31 25bd 9be7 98bd
00000350: d71a 9bbc 8dba 0abe 12d5 ef3d 6a0d 513e
00000360: d679 6bbd d420 7e3c 56ff cfbb 683f 243d
00000370: b0b4 dc3d 29bb 5b3e bd0f 4abc 1e72 603d
00000380: 39a2 bebd 6572 e6bd 467f 88bd 823a 543d
00000390: 320c c43d 0d64 033e 2152 4abe ef7f acbd
000003a0: 5df4 0c3c 591e cd3d 3258 9abc 0ade 603e
000003b0: bc9d 38bd 9cd4 533d 6fd7 0e3d 73b2 d93c
000003c0: b30a 323c 3591 023c a37a f6bd 0a91 e7bc
000003d0: cd74 a13d 6e7a b13b 633a 433d 24f9 993d
000003e0: a242 4cbd e017 763d 1cfb 913b 9314 353d
000003f0: 46b4 21be 5a7e c4bd 5509 433d 3600 32bc

feature_preprocessor.network.2.bias f4 [64]
0.0783702 0.14298378 -0.021653388 -0.037017535 0.0834211 -0.059815086 -0.16954526 -0.030544924
0.13112246 -0.030238403 -0.060923457 -0.05231606 0.13181788 -0.13241358 0.18222035 -0.09346422
-0.06530144 -0.018309765 0.09712374 0.067009635 0.06529403 -0.08248765 0.10380107 0.061707497
-0.032147262 0.14109366 -0.06592566 0.03299274 0.041633744 -0.17259362 -0.11667103 -0.031016137
-0.0641789 0.031329237 -0.21324396 0.07107011 -0.037754405 -0.08397218 0.123756215 0.06604214
-0.1448119 0.10993359 0.13560995 0.00483207 0.054140583 -0.03402788 0.04100846 -0.076341294
-0.027008975 -0.14149925 0.022251591 0.05340992 0.10822055 0.02627509 0.05717529 -0.018683203
-0.009919585 -0.0979489 0.17060612 0.03580368 -0.00034392168 -0.062558785 -0.03985742 -0.011147323
00000000: 8e80 a03d 576a 123e 7262 b1bc b39f 17bd
00000010: afd8 aa3d aa00 75bd 469d 2dbe 5939 fabc
00000020: f744 063e 87b6 f7bc e08a 79bd 5d49 56bd
00000030: 44fb 063e 6d97 07be f997 3a3e 2b6a bfbd
00000040: c3bc 85bd 5cfe 95bc d0e8 c63d 593c 893d
00000050: e0b8 853d 49ef a8bd a895 d43d 00c1 7c3d
00000060: d9ac 03bd db7a 103e 0804 87bd 6523 073d
00000070: 2588 2a3d 62bc 30be 39f1 eebd 8e15 febc
00000080: 3a70 83bd 1653 003d a05c 5abe 358d 913d
00000090: 5da4 1abd 9bf9 abbd e673 fd3d 1a41 873d
000000a0: 9249 14be dd24 e13d 56dd 0a3e 5756 9e3b
000000b0: 84c2 5d3d d160 0bbd 7df8 273d d358 9cbd
000000c0: ed41 ddbc 2ee5 10be f848 b63c 5cc4 5a3d
000000d0: bca2 dd3d dc3e d73c a330 6a3d 840d 99bc
000000e0: c185 22bc 6f99 c8bd 5fb3 2e3e e1a6 123d
000000f0: 6350 b4b9 d21e 80bd 8941 23bd 43a3 36bc

feature_preprocessor.network.4.weight f4 [32, 64]
0.15474229 -0.061346006 -0.078204826 -0.02691456 -0.147749 0.17358488 0.22181393 -0.036895778
0.11927718 0.15365484 -0.033556975 -0.08110968 0.017161645 0.019226799 0.07970502 -0.0144086005
0.030830363 -0.13415696 0.013680455 -0.092760935 -0.09443504 -0.118579835 -0.1345034 0.0037224537
-0.11670323 -0.12052072 0.11246113 -0.09601578 0.08600004 -0.17766641 0.13188137 0.12114813
0.0015260513 0.0819743 0.03989334 0.11083012 0.051881872 -0.04751271 0.063466385 -0.14663689
0.009835983 -0.01634049 -0.061092857 -0.112371475 0.006475452 -0.0057972344 0.2307085 0.06996213
0.03257373 0.060866818 -0.13855812 -0.07892523 0.016323602 0.011034774 0.066658504 -0.17373113
0.12794684 -0.05837138 0.18069194 -0.06776209 0.0048003057 0.12740473 -0.061394088 0.04002764
-0.07614761 0.10201719 -0.06013734 -0.13197349 -0.006814714 0.049998824 -0.035947017 -0.07009281
-0.012344898 0.15906434 -0.06095544 -0.16606995 0.07614764 0.019465722 0.03107415 0.055207904
-0.021543633 -0.010857839 0.088280335 0.062066514 0.0023197324 0.10786503 0.07265333 0.009655633
0.11777807 0.1034316 -0.032966375 -0.18630365 -0.056198064 0.15028673 0.046169803 0.019130018
-0.026273062 -0.0014364393 0.087973654 0.07006193 0.06533888 0.035231158 0.12836374 0.140731
-0.103962325 0.11351992 -0.00030584415 -0.004264991 -0.039492037 -0.13829486 0.05923632 -0.0023118742
-0.17087196 -0.11806033 -0.012359197 -0.13464439 -0.02567163 -0.014518722 0.02448441 -0.14535797
-0.07520472 0.056255784 0.07271366 -0.11240401 0.09451783 -0.0023988266 0.03765277 0.1254903
0.048155922 0.026500305 0.09648148 0.0068748887 0.00954103 -0.04817261 -0.06600773 0.08125143
0.07607151 -0.0959985 -0.05066519 0.027918093 0.09571735 0.041183285 0.06558519 -0.16453525
-0.036892932 0.11523956 -0.07522459 -0.10328276 0.06621115 -0.06822302 0.080160566 -0.09855677
0.18904722 0.06765371 -0.12918818 0.08947168 0.14787105 -0.01998737 0.051348396 0.07057695
-0.09222513 -0.02605686 0.018506223 0.0077255405 0.1405574 -0.023166189 0.08341691 0.1025503
0.004027313 0.06433907 0.029653462 0.13486618 0.0753653 -0.017754048 -0.17500775 -0.058456287
-0.1286313 -0.12731224 -0.06987301 -0.17049411 0.005499908 0.075973555 -0.06269171 0.07143041
-0.026428299 -0.001927107 -0.03675616 -0.07695686 0.106842265 -0.06559072 0.02933179 -0.088807866
-0.054971926 0.030297672 0.02474966 -0.20073612 0.08688517 -0.12484478 -0.013066159 -0.09990768
0.0075846543 0.05154556 0.13962585 0.10749881 0.10848336 -0.044013362 -0.013771457 0.00683223
-0.09289499 0.033179317 -0.12360095 0.095602915 -0.03075182 -0.01472872 -0.10975196 -0.07434753
-0.04293092 -0.20874833 0.00519674 0.037026327 -0.015333841 -0.050529376 -0.094061814 0.0028038465
-0.07404297 -0.046932846 0.1341756 0.19054706 -0.08640714 -0.27468762 0.116677955 -0.0024967087
0.06844778 -0.13807264 0.025643513 -0.028725144 -0.033612683 -0.08551707 0.1324794 0.023812758
-0.05520102 -0.012279726 -0.04303649 -0.033075843 -0.0705794 0.054935385 -0.3134695 0.25360304
-0.15841724 -0.07962945 -0.117230445 0.022481382 0.010363596 0.013359877 -0.076612405 -0.035609145
00000000: c374 1e3e f345 7bbd da29 a0bd ec7b dcbc
00000010: 844b 17be 3cc0 313e 3123 633e 0720 17bd
00000020: 9847 f43d b257 1d3e 0a73 09bd d51c a6bd
00000030: 9496 8c3c 8581 9d3c 633c a33d 0d12 6cbc
00000040: f58f fc3c 7160 09be fd23 603c 72f9 bdbd
00000050: 2967 c1bd fcd9 f2bd 42bb 09be 69f4 733b
00000060: 1a02 efbd 91d3 f6bd 0552 e63d eca3 c4bd
00000070: ca20 b03d 2fee 35be e90b 073e 831c f83d
00000080: c905 c83a 24e2 a73d 3367 233d e7fa e23d
00000090: 1682 543d b09c 42bd aafa 813d fb27 16be
000000a0: 1a27 213c 7edc 85bc 813c 7abd 0423 e6bd
000000b0: 0730 d43b baf6 bdbb d93e 6c3e 4e48 8f3d
000000c0: 086c 053d 7c4f 793d 2ee2 0dbe 8da3 a1bd
000000d0: 13b9 853c 32cb 343c 4184 883d 93e6 31be
000000e0: 7f04 033e d416 6fbd 4f07 393e dac6 8abd
000000f0: e24b 9d3b 6376 023e 5e78 7bbd 06f4 233d
00000100: 47f3 9bbd 63ee d03d 9252 76bd 0f24 07be
00000110: f74d dfbb 91cb 4c3d 2e3d 13bd d28c 8fbd
00000120: 4142 4abc c3e1 223e 69ac 79bd 3e0e 2abe
00000130: 4bf3 9b3d 9476 9f3c 378f fe3c af21 623d
00000140: 467c b0bc 14e5 31bc 52cc b43d 7539 7e3d
00000150: a706 183b 57e8 dc3d 45cb 943d a932 1e3c
00000160: a135 f13d f2d3 d33d c007 07bd 62c6 3ebe
00000170: f12f 66bd c4e4 193e 8c1c 3d3d 8eb6 9c3c
00000180: 9b3a d7bc e846 bcba 882b b43d a17c 8f3d
00000190: 64d0 853d 8c4e 103d c971 033e ca1b 103e
000001a0: 33ea d4bd 227d e83d b559 a0b9 56c1 8bbb
000001b0: 67c2 21bd 2b9d 0dbe c9a1 723d d082 17bb
000001c0: 0ff9 2ebe 9dc9 f1bd 3b7e 4abc 38e0 09be
000001d0: 4f4d d2bc efdf 6dbc 8893 c83c b8d8 14be
000001e0: ef04 9abd 776c 663d e6ea 943d 1334 e6bd
000001f0: 9092 c13d a235 1dbb ca39 1a3d 8780 003e
00000200: 253f 453d 2b17 d93c 1598 c53d bf46 e13b
00000210: fb51 1c3c a550 45bd 102f 87bd 2667 a63d
00000220: 61cb 9b3d dd9a c4bd 4d86 4fbd 7cb4 e43c
00000230: 7507 c43d ceaf 283d 8751 863d ee7b 28be
00000240: 0b1d 17bd b802 ec3d 5a0f 9abd e985 d3bd
00000250: b699 873d 83b8 8bbd 392b a43d 22d8 c9bd
00000260: 9895 413e 078e 8a3d e849 04be ee3c b73d
00000270: 826b 173e 8ebc a3bc b252 523d a68a 903d
00000280: 87e0 bcbd 3275 d5bc 5d9a 973c 8826 fd3b
00000290: 47ee 0f3e 05c7 bdbc 7cd6 aa3d e405 d23d
000002a0: 8df7 833b 34c4 833d d1eb f23c 5c1a 0a3e
000002b0: 1f59 9a3d f070 91bc 3b35 33be dc6f 6fbd
000002c0: ecb7 03be 245e 02be 9519 8fbd 0296 2ebe
000002d0: 9238 b43b 0698 9b3d 8364 80bd 1b4a 923d
000002e0: 2980 d8bc fb96 fcba a18d 16bd 8f9b 9dbd
000002f0: 1ed0 da3d 6d54 86bd 3949 f03c e6e0 b5bd
00000300: 3e2a 61bd d332 f83c cdbf ca3c c58d 4dbe
00000310: daf0 b13d 9fae ffbd 7113 56bc 669c ccbd
00000320: b188 f83b 7021 533d 14fa 0e3e 5628 dc3d
00000330: 862c de3d 5b47 34bd ada1 61bc e6e0 df3b
00000340: bb3f bebd 09e7 073d 7f22 fdbd 76cb c33d
00000350: 3eeb fbbc bb50 71bc a3c5 e0bd 8543 98bd
00000360: 55d8 2fbd 1fc2 55be 6a49 aa3b eba8 173d
00000370: ca3a 7bbc e4f7 4ebd 7ba3 c0bd bdc0 373b
00000380: d7a3 97bd a83c 40bd 5465 093e c51e 433e
00000390: 3af6 b0bd dba3 8cbe daf4 ee3d d29f 23bb
000003a0: 5a2e 8c3d ea62 0dbe 5812 d23c fe50 ebbc
000003b0: 74ad 09bd 9323 afbd aea8 073e f912 c33c
000003c0: 771a 62bd e730 49bc 0847 30bd 897a 07bd
000003d0: ef8b 90bd ed03 613d 137f a0be 42d8 813e
000003e0: 2138 22be c414 a3bd 8416 f0bd e02a b83c
000003f0: 12cc 293c 63e3 5a3c f7e6 9cbd e5da 11bd

feature_preprocessor.network.4.bias f4 [32]
0.045206983 -0.028355913 -0.061783466 -0.06626633 -0.07640569 -0.043314036 -0.088302106 -0.12399049
-0.13586333 -0.3633566 0.034274615 -0.03786511 -0.12435035 -0.060784053 -0.06829804 0.07977082
-0.06744911 0.15520968 0.12529406 0.048495207 0.0751832 -0.042976566 0.07072352 -0.11233745
0.07256997 0.0865887 0.14351623 -0.051954743 0.09509903 0.028127069 0.13656183 0.078995965
00000000: f52a 393d a94a e8bc a910 7dbd a4b6 87bd
00000010: 967a 9cbd 0f6a 31bd bcd7 b4bd baee fdbd
00000020: c21f 0bbe e009 babe 8a63 0c3d 7218 1bbd
00000030: 65ab febd b3f8 78bd d8df 8bbd e25e a33d
00000040: c222 8abd 49ef 1e3e 164d 003e e9a2 463d
00000050: a6f9 993d 3208 30bd 7ed7 903d 2d11 e6bd
00000060: 909f 943d 6b55 b13d ebf5 123e 7fce 54bd
00000070: 48c3 c23d bd6a e63c ddd6 0b3e a3c8 a13d

dual_encoder.vencoder.layers.0.shared.q_linear.weight f4 [32, 32]
0.21504113 -0.09736378 -0.23174028 0.79649264 -0.1674245 -0.18079822 0.02632551 0.088319644
-0.16801944 -0.17566447 -0.26735824 -0.017352112 -0.134806 -0.06849018 0.18362084 0.21996188
-0.059095405 -0.03006981 -0.0420305 0.2648036 -0.3307654 0.07361995 0.22784618 0.005112752
0.5453516 -0.14714809 -0.113680236 -0.40078142 -0.23922616 -0.10029537 0.4311318 0.12763363
0.46814802 -0.10452442 -0.08781226 0.45631567 -0.12391051 -0.14955501 0.14716096 -0.0073569207
0.071268834 -0.05516883 -0.28315178 0.028607458 0.07618535 -0.21984622 0.17604472 0.17295682
0.047509927 0.039631188 0.008752606 0.5724839 -0.5170803 0.25934288 0.10738353 0.08727944
0.10754362 -0.0003334096 -0.17458463 -0.64039415 -0.2051919 -0.21633515 0.17595093 -0.02727263
-0.25010836 0.15874514 0.13729037 -0.42001912 -0.050119556 0.18289506 0.13967247 0.05865004
0.098594874 0.24210227 0.16857766 -0.07476716 -0.10541344 -0.25150707 -0.3651524 -0.13939124
-0.040801834 -0.035933778 -0.018498754 -0.40327656 0.46188402 -0.27378115 0.0062389327 0.07498956
-0.41349775 -0.21592933 0.31464523 0.8728527 -0.08810173 0.16170375 0.016010148 0.15365699
-0.20135845 0.102346025 0.14370799 -0.6454841 -0.07999449 0.094858095 -0.06554365 -0.074318394
0.006938038 0.049998242 0.46137175 0.02458514 0.013111113 0.050149247 -0.11396642 0.020298826
-0.036072258 0.11004582 0.14229733 -0.39329812 0.2723194 -0.004752262 -0.21714991 0.015284705
-0.37928247 -0.15463904 0.35457787 0.7889558 0.22188032 0.031982478 -0.30110148 0.13897589
-0.39378163 0.07152629 0.23791374 -0.72097826 -0.070037216 0.16623119 0.17737496 0.20837662
-0.05363673 0.24819627 0.26542628 0.09466653 0.016771063 -0.1961335 -0.21825883 -0.3027197
0.05475197 0.14235373 0.11214542 -0.43224272 0.47246897 -0.14761057 -0.1366512 -0.08429709
-0.31267342 -0.24248044 0.28514838 0.8605769 -0.14560805 0.06634633 -0.08526485 -0.09552476
0.5920559 0.02381538 0.18819906 0.878019 -0.16208081 0.2306393 -0.01134627 0.0053147506
0.15762913 0.3199296 0.06955989 -0.24638589 -0.14453255 0.114777096 0.10394926 -0.0413204
0.1786252 0.3303589 -0.04262403 0.35987723 -0.2621183 -0.19114074 0.5613119 0.051477477
0.90644735 0.3450628 -0.19310038 -0.103954636 -0.090750895 -0.068638764 0.33705586 0.28767908
0.09540358 0.2328846 -0.12317604 0.7998674 -0.1295662 -0.03439795 0.13141865 0.039891284
0.07054303 -0.3308173 -0.17663647 -0.058979157 0.19428262 -0.049633775 0.4228283 0.28885636
0.106371254 0.15990698 -0.1413293 0.44632536 -0.28292283 0.10206186 0.35307804 0.11405783
0.46208468 0.2795047 -0.13690601 -0.46993172 0.115249805 -0.08324739 0.22809356 0.13343108
0.21226372 0.15038286 0.083983876 0.6168992 -0.12239374 -0.16896833 -0.007112238 -0.33173716
-0.0695645 0.15464099 -0.447894 -0.04158563 -0.37000453 -0.08193519 0.15561001 0.22181113
0.0013723809 0.16484943 -0.03186132 0.63415897 -0.42128557 0.2604102 0.24831828 -0.03245682
0.50154376 -0.045817886 -0.20990282 -0.6102275 -0.119181395 -0.026484367 0.27798107 -0.046561714
00000000: be33 5c3e a966 c7bd 534d 6dbe f1e6 4b3f
00000010: 5471 2bbe 2b23 39be 99a8 d73c eee0 b43d
00000020: 4a0d 2cbe 63e1 33be 2ee3 88be 0426 8ebc
00000030: 960a 0abe 9444 8cbd 1a07 3c3e b03d 613e
00000040: 060e 72bd f654 f6bc 2c28 2cbd 5694 873e
00000050: 155a a9be 0ec6 963d 8250 693e df88 a73b
00000060: 2a9c 0b3f fdad 16be 2fd1 e8bd 3933 cdbe
00000070: b4f7 74be a967 cdbd 4fbd dc3e 64b2 023e
00000080: 19b1 ef3e e610 d6bd ead6 b3bd 35a2 e93e
00000090: cbc4 fdbd f324 19be 5db1 163e 5312 f1bb
000000a0: 65f5 913d b6f8 61bd 45f9 90be 305a ea3c
000000b0: 1107 9c3d 5e1f 61be 1145 343e 981b 313e
000000c0: c599 423d 5054 223d 1767 0f3c 4e8e 123f
000000d0: 605f 04bf 97c8 843e e5eb db3d 90bf b23d
000000e0: d43f dc3d 7bcd aeb9 50c6 32be dff0 23bf
000000f0: d31d 52be f686 5dbe 7b2c 343e da6a dfbc
00000100: 340e 80be 168e 223e d995 0c3e bf0c d7be
00000110: 2a4a 4dbd d848 3b3e 4d06 0f3e 063b 703d
00000120: 1cec c93d a8e9 773e 9f9f 2c3e 861f 99bd
00000130: 00e3 d7bd 89c5 80be 41f5 babe 94bc 0ebe
00000140: d31f 27bd 4c2f 13bd b38a 97bc 447a cebe
00000150: 107c ec3e 0b2d 8cbe f66f cc3b 2094 993d
00000160: fab5 d3be 941c 5dbe 2e19 a13e 4673 5f3f
00000170: ae6e b4bd ab95 253e b727 833c 4258 1d3e
00000180: e930 4ebe cb9a d13d 3028 133e 723e 25bf
00000190: 27d4 a3bd f644 c23d c03b 86bd 3e34 98bd
000001a0: 7b58 e33b f5ca 4c3d eb38 ec3e c766 c93c
000001b0: fecf 563c 4c69 4d3d 3a67 e9bd b949 a63c
000001c0: 81c0 13bd b45f e13d 64b6 113e 5f5e c9be
000001d0: 736d 8b3e ddb8 9bbb 8c5c 5ebe b36c 7a3c
000001e0: 5031 c2be b259 1ebe 3b8b b53e 02f9 493f
000001f0: 9834 633e 0f00 033d f929 9abe b24f 0e3e
00000200: bf9d c9be 607c 923d a99f 733e 0892 38bf
00000210: ac6f 8fbd 8238 2a3e c8a1 353e ae60 553e
00000220: 30b2 5bbd 2a27 7e3e f4e5 873e 87e0 c13d
00000230: 7863 893c 38d7 48be 3e7f 5fbe 14fe 9abe
00000240: 9a43 603d 2dc5 113e 7fac e53d eb4e ddbe
00000250: 74e7 f13e 3a27 17be 4bee 0bbe f4a3 acbd
00000260: bb16 a0be cb4c 78be f8fe 913e c54e 5c3f
00000270: 471a 15be 96e0 873d 569f aebd 7ca2 c3bd
00000280: fa90 173f 7918 c33c 41b7 403e dac5 603f
00000290: 83f8 25be b52c 6c3e b5e5 39bc 5c27 ae3b
000002a0: 8869 213e d0cd a33e 6a75 8e3d 954c 7cbe
000002b0: 5700 14be 4110 eb3d 5ae3 d43d 943f 29bd
000002c0: 86e9 363e cd24 a93e 8996 2ebd d441 b83e
000002d0: 5f34 86be 66ba 43be 23b2 0f3f 0cda 523d
000002e0: ef0c 683f 12ac b03e 1bbc 45be 2be6 d4bd
000002f0: 9bdb b9bd 7b92 8cbd 9692 ac3e ac4a 933e
00000300: f462 c33d 4d79 6e3e b843 fcbd 1cc4 4c3f
00000310: 00ad 04be dde4 0cbd 9c92 063e 0b65 233d
00000320: dd78 903d e360 a9be 31e0 34be 2194 71bd
00000330: 06f2 463e c94c 4bbd f37c d83e fbe4 933e
00000340: 2cd9 d93d a8be 233e a1b8 10be c284 e43e
00000350: 43db 90be cf05 d13d a5c6 b43e 2797 e93d
00000360: 5d96 ec3e 3d1b 8f3e 1731 0cbe e49a f0be
00000370: 1708 ec3d 9c7d aabd 5c91 693e 28a2 083e
00000380: a95b 593e f7fd 193e bdff ab3d 1bed 1d3f
00000390: 92a9 fabd 0906 2dbe c70d e9bb 74d9 a9be
000003a0: d577 8ebd 355a 1e3e 5d52 e5be b255 2abd
000003b0: 3c71 bdbe a3cd a7bd 3b58 1f3e 7522 633e
000003c0: 76e1 b33a 4ace 283e 0481 02bd 3e58 223f
000003d0: beb2 d7be 7c54 853e 2647 7e3e 71f1 04bd
000003e0: 2c65 003f 89ab 3bbd c4f0 56be df37 1cbf
000003f0: 6015 f4bd bef5 d8bc 8953 8e3e 7fb7 3ebd

dual_encoder.vencoder.layers.0.shared.q_linear.bias f4 [32]
0.2378364 -0.04557981 -0.06853848 -0.09772236 -0.19150656 0.09902496 0.067944504 -0.045954272
-0.15678643 -0.06833367 0.3448341 -0.10474789 -0.20890898 -0.2758945 0.053842023 0.14970893
-0.0769106 -0.09839678 -0.3086068 0.058955364 -0.2070258 0.043286797 -0.06298793 -0.021956189
0.19484788 0.046500135 0.052630145 0.50036067 0.11693415 -0.19871543 0.23021455 0.119886816
00000000: 638b 733e e5b1 3abd e75d 8cbd a922 c8bd
00000010: 4c1a 44be 99cd ca3d 7d26 8b3d 8c3a 3cbd
00000020: 9f8c 20be 86f2 8bbd 188e b03e 1086 d6bd
00000030: 3cec 55be 0b42 8dbe 7489 5c3d 4c4d 193e
00000040: 4e83 9dbd 4084 c9bd b601 9ebe 2e7b 713d
00000050: 92fe 53be 7f4d 313d d1ff 80bd 77dd b3bc
00000060: 3486 473e ed76 3e3d b592 573d a317 003f
00000070: 2c7b ef3d 0f7c 4bbe 5dbd 6b3e 3887 f53d

dual_encoder.vencoder.layers.0.shared.k_linear.weight f4 [32, 32]
-0.2472873 0.06518604 -0.065934286 0.067691885 0.029458052 -0.11784204 -0.14739303 -0.19723277
0.16251683 0.31857643 -0.38114953 -0.26887095 -0.06861177 0.24598135 0.20439646 0.10091193
0.10795514 -0.033829343 0.0037549871 -0.16216694 -0.07745009 -0.09991704 -0.5692888 0.4644277
-0.050507054 0.2874621 -0.13410987 0.22565882 0.24457942 -0.51172966 -0.37995496 0.44886807
-0.3468312 0.07766853 0.24229899 -0.16641021 -0.002113328 0.19242649 -0.13948078 -0.12668507
0.10262897 0.185158 -0.15202199 0.013664232 -0.33366 0.36664024 -0.028723545 -0.16955848
0.17545068 0.0622321 0.12024971 0.10155986 0.101097085 -0.036870465 -0.49468064 0.34334898
-0.12882206 0.04074331 -0.21278563 0.20438375 0.14168498 -0.26659697 -0.27002028 0.118528694
0.7163516 -0.36160114 -0.27926356 0.4223882 -0.02007168 -0.5451665 0.060261738 0.6321204
-0.10578255 -0.5901636 -0.06339767 0.21182054 0.6255502 -0.15026626 -0.07362075 0.009570672
-0.32685283 -0.13479377 -0.36152855 0.16615136 0.95814073 0.3394642 0.6662529 -0.5442181
0.24045314 -0.414709 -0.11621213 -0.4219906 -0.45370385 0.34057045 0.68498135 -0.2463126
0.37575218 -0.19443059 -0.30074388 0.2501693 0.08165362 -0.058480583 0.16398135 0.215737
0.16269366 0.11329283 0.42340282 0.23113026 0.45965812 -0.22707437 -0.19581258 0.11474798
-0.18879327 -0.24451068 -0.15508272 -0.12289089 0.12728128 0.1902124 0.5312171 -0.34295896
0.40680617 -0.20731089 -0.016436221 -0.32968986 -0.19270474 0.33185095 0.35304135 -0.35774893
0.5748878 -0.28365764 -0.30102503 0.2959535 -0.09662006 -0.2812343 -0.10534368 0.46467295
-0.095558286 -0.59229076 0.07532166 0.21589966 0.60826397 -0.005065602 -0.21901089 0.07592982
-0.57450163 -0.14635827 -0.17063916 -0.040551964 0.9031197 0.4113444 0.69962114 -0.53709596
0.43156797 -0.42791277 0.04607551 -0.43582547 -0.6003058 0.22112891 0.5819607 -0.20261355
-0.33861357 0.17247957 0.19496892 -0.04057169 -0.090734765 -0.25105435 -0.07779977 -0.31534147
-0.0080179125 0.31853247 -0.24123226 0.17460498 -0.27521327 0.2923911 -0.11490794 -0.078800775
0.09893663 -0.4093191 -0.1910704 0.061660424 -0.45172888 -0.075409435 0.018732086 0.3805281
-0.19995596 0.3295602 -0.55321777 -0.13830087 0.27363554 0.35743043 -0.086997904 0.6109413
-0.46336725 0.3832147 0.3024362 -0.23432285 0.086217806 0.15468006 -0.077580765 -0.49573568
0.13999313 0.63690996 0.013043471 -0.31049007 -0.25321886 -0.1177029 -0.1331409 -0.28980106
0.22241428 0.25459018 -0.009816009 -0.08511331 -1.0286914 -0.41515744 -0.3720477 0.48451224
-0.140798 0.4406727 -0.11142106 -0.038795825 0.4244277 0.016865782 -0.38684133 0.29000327
-0.44851172 0.38528165 0.24579448 -0.29226875 0.09952043 0.23868307 -0.11858707 -0.51310354
-0.07761192 0.25320372 -0.47649303 -0.029623356 -0.22352304 0.25864586 -0.06485518 -0.0018450279
0.2224567 0.074754745 0.24910277 0.094753146 -0.32777607 -0.16339114 -0.520189 0.71051216
-0.26687735 0.19529164 -0.31728497 0.100385584 0.16054843 -0.29359508 -0.48642728 0.29965004
00000000: e238 7dbe 4280 853d 8e08 87bd 0ba2 8a3d
00000010: 0352 f13c 2b57 f1bd 33ee 16be 63f7 49be
00000020: d06a 263e 731c a33e 0826 c3be 74a9 89be
00000030: 5484 8cbd 89e2 7b3e 4e4d 513e eaaa ce3d
00000040: 9617 dd3d a390 0abd 3b16 763b 170f 26be
00000050: 279e 9ebd 4ea1 ccbd e9bc 11bf 78c9 ed3e
00000060: 7ce0 4ebd 3b2e 933e 1954 09be 1b13 673e
00000070: 0773 7a3e b700 03bf 7589 c2be 09d2 e53e
00000080: dc93 b1be ae10 9f3d 3a1d 783e 7067 2abe
00000090: c37f 0abb 730b 453e 0dd4 0ebe bbb9 01be
000000a0: 232f d23d 0f9a 3d3e a7ab 1bbe f1df 5f3c
000000b0: 7cd5 aabe 45b8 bb3e a44d ebbc bda0 2dbe
000000c0: 58a9 333e 16e7 7e3d 7b45 f63d 9efe cf3d
000000d0: fd0b cf3d 7c05 17bd c846 fdbe 70cb af3e
000000e0: eee9 03be 75e2 263d 7ae4 59be f949 513e
000000f0: de15 113e 667f 88be 1940 8abe 2cbf f23d
00000100: d262 373f c923 b9be a2fb 8ebe 4443 d83e
00000110: 5d6d a4bc 0890 0bbf 03d5 763d a4d2 213f
00000120: 86a4 d8bd f614 17bf a3d6 81bd 7ce7 583e
00000130: 0f24 203f 66df 19be 7ac6 96bd 4fce 1c3c
00000140: 4159 a7be 6107 0abe 451a b9be 9523 2a3e
00000150: b648 753f 40ce ad3e 8d8f 2a3f e151 0bbf
00000160: 5939 763e bd54 d4be a000 eebd 270f d8be
00000170: df4b e8be 405f ae3e f05a 2f3f 5f39 7cbe
00000180: 9762 c03e d018 47be 1afb 99be 3116 803e
00000190: 033a a73d 5689 6fbd baea 273e 29ea 5c3e
000001a0: 2b99 263e 1206 e83d 41c8 d83e 69ad 6c3e
000001b0: 4f58 eb3e 2f86 68be 1883 48be fd00 eb3d
000001c0: 0653 41be 0261 7abe 01ce 1ebe 38ae fbbd
000001d0: 0656 023e 0ac7 423e d8fd 073f 5198 afbe
000001e0: e648 d03e 4e49 54be 41a5 86bc 1ccd a8be
000001f0: 6454 45be 5ee8 a93e d6c1 b43e de2a b7be
00000200: d92b 133f 933b 91be f41f 9abe 3887 973e
00000210: bde0 c5bd f1fd 8fbe 6dbe d7bd 9de9 ed3e
00000220: 10b4 c3bd 5ea0 17bf 3e42 9a3d cd14 5d3e
00000230: 30b7 1b3f 59fd a5bb 6444 60be 1881 9b3d
00000240: 8a12 13bf f1de 15be 08bc 2ebe d119 26bd
00000250: da32 673f bc9b d23e 5f1a 333f 1f7f 09bf
00000260: 7af6 dc3e 6217 dbbe adb9 3c3d 8424 dfbe
00000270: a4ad 19bf 9e6f 623e 60fb 143f ed79 4fbe
00000280: c25e adbe 7c9e 303e efa5 473e 802e 26bd
00000290: 26d3 b9bd 328a 80be 7c55 9fbd 7074 a1be
000002a0: 905d 03bc b016 a33e 9705 77be a6cb 323e
000002b0: c1e8 8cbe 49b4 953e db54 ebbd 4d62 a1bd
000002c0: 4a9f ca3d 4692 d1be f5a7 43be a48f 7c3d
000002d0: 0249 e7be 4370 9abd 0874 993c 94d4 c23e
000002e0: 41c1 4cbe 1dbc a83e ae9f 0dbf be9e 0dbe
000002f0: f519 8c3e 1f01 b73e f52b b2bd a666 1c3f
00000300: 793e edbe b834 c43e ebd8 9a3e 54f2 6fbe
00000310: f692 b03d 7364 1e3e aae2 9ebd 11d1 fdbe
00000320: 5c5a 0f3e 880c 233f 48b4 553c 8ef8 9ebe
00000330: e7a5 81be 380e f1bd 1756 08be ce60 94be
00000340: 92c0 633e a559 823e 53d3 20bc e34f aebd
00000350: 29ac 83bf 848f d4be 097d bebe fd11 f83e
00000360: 5a2d 10be da9f e13e ba30 e4bd 5fe8 1ebd
00000370: 964e d93e 1c2a 8a3c 1110 c6be 4f7b 943e
00000380: 54a3 e5be a343 c53e 8cb1 7b3e 40a4 95be
00000390: 5ed1 cb3d 5669 743e c7dd f2bd c15a 03bf
000003a0: 00f3 9ebd eba3 813e e5f6 f3be aeac f2bc
000003b0: 39e3 64be 3b6d 843e cbd2 84bd ddd4 f1ba
000003c0: b0cb 633e 0419 993d cc14 7f3e f00d c23d
000003d0: 44d2 a7be 0250 27be 1b2b 05bf 20e4 353f
000003e0: 26a4 88be 88fa 473e 2d73 a2be f596 cd3d
000003f0: cf66 243e 1852 96be ff0c f9be bb6b 993e

dual_encoder.vencoder.layers.0.shared.k_linear.bias f4 [32]
-0.22514361 0.043614402 -0.13848123 0.027776351 -0.08443728 -0.036997244 -0.1183111 0.14637445
-0.3266601 -0.023423243 0.2507302 0.043910142 -0.09679179 -0.32029802 -0.036168236 0.21090555
0.045666732 -0.026930766 -0.26973695 -0.1822925 -0.15327369 0.24929558 0.10510753 0.20373814
0.014717272 0.03441944 -0.08182913 0.056772236 -0.0308119 0.032449737 0.2407852 0.11401067
00000000: 0c8c 66be 04a5 323d 06ce 0dbe 3b8b e33c
00000010: 74ed acbd 6c8a 17bd 174d f2bd 2fe3 153e
00000020: fe3f a7be 1ae2 bfbc b55f 803e 1fdb 333d
00000030: c63a c6bd 1afe a3be 2525 14bd a0f7 573e
00000040: 0a0d 3b3d e99d dcbc f61a 8abe e3aa 3abe
00000050: c7f3 1cbe 5747 7f3e 9e42 d73d bba0 503e
00000060: b620 713c 66fb 0c3d 0896 a7bd 018a 683d
00000070: 3d69 fcbc 04ea 043d 6590 763e 6d7e e93d

dual_encoder.vencoder.layers.0.shared.v_linear.weight f4 [32, 32]
-0.013797679 0.106136054 0.14212891 0.022491617 -0.0070917103 -0.087944716 0.1199245 0.13629644
0.17140885 -0.38617447 0.14342004 0.013712539 -0.005694362 0.14625776 0.09791928 -0.03445164
-0.25555307 -0.0020758456 -0.13486616 0.011224987 0.09492378 -0.009930783 0.083548315 0.07193286
0.14610218 -0.13798952 -0.049093463 -0.04240427 -0.23701118 -0.17978345 -0.14668722 0.19964245
-0.044812262 0.058270633 -0.00782136 0.046590626 0.16072758 -0.0013832115 0.01710291 -0.087673895
-0.021291155 -0.14264591 -0.0791651 0.07636919 0.015234226 -0.057934076 0.021373117 0.09636641
0.09317678 0.17410189 0.067789584 -0.066065654 0.14269234 0.038587026 0.10276916 -0.17666318
0.20699143 -0.06411276 0.12114061 0.10846764 -0.15163155 0.07595392 -0.13272344 -0.13230297
-0.016406022 -0.053232327 -0.033734728 -0.03804913 0.018739156 -0.042693913 0.12982526 -0.031652924
-0.01403611 0.07329826 -0.12583748 0.22383042 0.011190666 0.07739474 0.042840417 0.09989732
-0.044052597 -0.13728563 -0.06858308 -0.10516933 0.16374202 0.040344086 -0.17612638 -0.0005626512
0.055116944 0.04133413 0.13028671 -0.1283151 0.1039501 0.018508341 -0.0073758014 0.085689515
-0.11258287 0.13405839 0.05245314 -0.026752615 -0.024993805 0.10526281 -0.050250616 0.056120895
-0.033083174 0.24852479 -0.19847606 -0.17518109 0.12411933 -0.0109258685 0.15807736 -0.15294251
0.046854105 0.022169156 -0.14877747 0.023729129 -0.10997018 -0.016501857 -0.013870149 0.118725084
0.116427 0.0029246353 -0.12727411 -0.013236883 0.14005904 -0.040592548 -0.00092143094 0.080937125
0.025523808 0.049376883 0.15316 -0.043754164 -0.084794916 0.12426094 0.12332176 0.10301404
-0.021081341 -0.08369762 -0.0032566502 -0.1476347 -0.033273924 -0.14144847 0.19269806 -0.18425627
0.118543975 0.1831428 0.07224692 0.13175894 -0.02958563 -0.045181487 0.04085818 0.050946686
-0.06686867 -0.15782887 0.11952488 0.15095074 -0.059799723 -0.13175273 0.16039252 0.1140901
-0.0345894 -0.14075415 -0.018783303 -0.14387174 -0.12338915 0.17880781 0.050180957 0.08295093
-0.05433668 0.15681623 -0.18288445 0.13869213 0.07313662 -0.17084345 -0.08380094 0.05470319
0.0051649828 0.033302125 -0.17185363 0.038766615 -0.12845065 -0.05781055 -0.03319438 -0.14672217
-0.045713875 0.052212015 -0.024720095 0.08813513 0.09891639 -0.11111422 -0.08387438 -0.08215758
0.013599305 0.030719787 -0.14566597 -0.13678272 -0.07568176 0.081967816 0.06765869 -0.14978944
-0.14518878 0.018009214 0.045668818 0.14088991 -0.08913081 -0.1111236 -0.17989388 -0.10469107
0.08782209 0.101001576 -0.14403367 0.09274643 -0.15405183 0.08520171 -0.057346124 -0.16473141
-0.114711784 -0.13255666 -0.14971383 0.07612597 0.16831177 -0.105367385 0.0031317985 -0.075738885
0.0011229127 0.055532392 -0.17911372 0.04941642 -0.003537724 0.03891324 -0.0065516294 0.15223905
0.063199356 0.07971789 -0.1231065 0.11455993 0.13506036 -0.06920113 0.07899579 -0.11477598
-0.060016226 0.009120153 0.11327279 -0.13185829 -0.02248469 -0.01584632 0.17151703 -0.07008058
0.18605806 -0.07909137 0.05692055 -0.09770631 -0.048615824 -0.108091995 -0.20530546 0.0029173067
00000000: a90f 62bc dc5d d93d 3e8a 113e 5740 b83c
00000010: 9461 e8bb 5c1c b4bd fa9a f53d 4b91 0b3e
00000020: cd85 2f3e a9b8 c5be b4dc 123e 8faa 603c
00000030: c597 babb 98c4 153e e789 c83d 2a1d 0dbd
00000040: dad7 82be e90a 08bb 5b1a 0abe 02e9 373c
00000050: 6667 c23d b9b4 22bc 611b ab3d 8951 933d
00000060: cf9b 153e 204d 0dbe 3a16 49bd 1ab0 2dbd
00000070: 0fb3 72be 2719 38be 2d35 16be 126f 4c3e
00000080: 108d 37bd 30ad 6e3d 2925 00bc d0d5 3e3d
00000090: c595 243e e04c b5ba 671b 8c3c 5f8e b3bd
000000a0: ca6a aebc c511 12be 5021 a2bd 7367 9c3d
000000b0: fa98 793c 484c 6dbd ad16 af3c c15b c53d
000000c0: 78d3 be3d c447 323e 44d5 8a3d 6e4d 87bd
000000d0: f11d 123e 6e0d 1e3d a378 d23d 31e7 34be
000000e0: 90f5 533e 8d4d 83bd 9118 f83d 4824 de3d
000000f0: 4d45 1bbe bb8d 9b3d a7e8 07be 6e7a 07be
00000100: ec65 86bc 240a 5abd 6d2d 0abd 68d9 1bbd
00000110: dc82 993c d0df 2ebd eaf0 043e 7fa6 01bd
00000120: b6f7 65bc 661d 963d 8adb 00be cd33 653e
00000130: 0e59 373c 2281 9e3d 6f79 2f3d f796 cc3d
00000140: 7f70 34bd 9b94 0cbe 4975 8cbd 0563 d7bd
00000150: fdab 273e d73f 253d 795a 34be e27e 13ba
00000160: 4ec2 613d fa4d 293d e169 053e 0965 03be
00000170: cae3 d43d ce9e 973c b5b0 f1bb fc7d af3d
00000180: d991 e6bd 9a46 093e 1bd9 563d 4d28 dbbc
00000190: cfbf ccbc 0794 d73d 97d3 4dbd 06df 653d
000001a0: 3982 07bd 487d 7e3e 4f3d 4bbe ac62 33be
000001b0: 4632 fe3d 6a02 33bc 08df 213e f69c 1cbe
000001c0: 17ea 3f3d 179c b53c 1f59 18be 9763 c23c
000001d0: 0c38 e1bd e72e 87bc 9f3f 63bc 2326 f33d
000001e0: 4771 ee3d 3dab 3f3b 2554 02be 83df 58bc
000001f0: a36b 0f3e 5f44 26bd 2f8c 71ba 5dc2 a53d
00000200: 4e17 d13c 6a3f 4a3d fad5 1c3e 9137 33bd
00000210: f5a8 adbd 857c fe3d 1e90 fc3d 06f9 d23d
00000220: c7b2 acbc a869 abbd 866d 55bb 8d2d 17be
00000230: 3d4a 08bd ded7 10be a452 453e adad 3cbe
00000240: 2fc7 f23d c989 3b3e 31f6 933d d1eb 063e
00000250: 905d f2bc 3910 39bd e85a 273d 79ad 503d
00000260: 71f2 88bd e49d 21be 76c9 f43d d592 1a3e
00000270: 8ef0 74bd 30ea 06be f03d 243e 12a8 e93d
00000280: 9dad 0dbd db21 10be 71df 99bc 1d53 13be
00000290: 73b3 fcbd 6519 373e 8c8a 4d3d 2de2 a93d
000002a0: 2390 5ebd 6f94 203e 1046 3bbe 4f05 0e3e
000002b0: a7c8 953d 96f1 2ebe d49f abbd 7410 603d
000002c0: 043f a93b cf67 083d 66fa 2fbe bec9 1e3d
000002d0: 9188 03be c1ca 6cbd d5f6 07bd 563e 16be
000002e0: 793e 3bbd 44dc 553d cc81 cabc 3180 b43d
000002f0: ad94 ca3d da8f e3bd 55c6 abbd 3c42 a8bd
00000300: 9fcf 5e3c 10a8 fb3c 7629 15be c510 0cbe
00000310: 0aff 9abd bede a73d a490 8a3d 6762 19be
00000320: 5eac 14be 0f88 933c 3a0f 3b3d 7245 103e
00000330: 378a b6bd c594 e3bd 1a36 38be 4668 d6bd
00000340: 11dc b33d ead9 ce3d 907d 13be d7f1 bd3d
00000350: c3bf 1dbe 3c7e ae3d c5e3 6abd 5aaf 28be
00000360: 03ee eabd efbc 07be 954e 19be efe7 9b3d
00000370: ec59 2c3e dbca d7bd dc3e 4d3b fd1c 9bbd
00000380: b32e 933a ef75 633d 9669 37be df68 4a3d
00000390: 29d9 67bb 7d63 1f3d 0daf d6bb 8ee4 1b3e
000003a0: aa6e 813d 2243 a33d 431f fcbd 669e ea3d
000003b0: 434d 0a3e 52b9 8dbd 8bc8 a13d ab0f ebbd
000003c0: 93d3 75bd b26c 153c 91fb e73d dc05 07be
000003d0: d031 b8bc 24d0 81bc 29a2 2f3e 6886 8fbd
000003e0: 0186 3e3e a8fa a1bd 8625 693d 3f1a c8bd
000003f0: 6321 47bd 565f ddbd 983b 52be 4930 3f3b

dual_encoder.vencoder.layers.0.shared.v_linear.bias f4 [32]
0.14407873 -0.13175781 -0.049874716 -0.056408424 0.117043205 -0.03943457 0.09028292 0.073935464
0.070574775 0.10610346 0.08318054 0.0059180083 0.16034049 0.10465583 0.012795111 0.0638362
0.12608027 0.029627675 0.15384011 -0.13518052 0.161168 0.14793767 -0.02722811 0.121956564
0.040701404 -0.11384138 -0.02046364 0.0438526 -0.1197345 -0.16737214 0.029240718 0.023181578
00000000: 6089 133e 85eb 06be 6e49 4cbd 850c 67bd
00000010: 59b4 ef3d 2586 21bd 40e6 b83d 7a6b 973d
00000020: 8289 903d c54c d93d 8f5a aa3d daeb c13b
00000030: 4c30 243e cc55 d63d 96a2 513c 8ebc 823d
00000040: 301b 013e bdb5 f23c 4388 1d3e c36c 0abe
00000050: 3909 253e f97c 173e 7c0d dfbc 5dc4 f93d
00000060: 84b6 263d ab25 e9bd 5da3 a7bc c99e 333d
00000070: 5d37 f5bd 9a63 2bbe 3b8a ef3c 4be7 bd3c

dual_encoder.vencoder.layers.0.shared.out_ffn.0.weight f4 [32, 32]
0.08141639 -0.051033735 -0.040344596 -0.12516278 -0.16839951 0.006909596 0.20702831 0.20116636
-0.30642775 -0.16044256 -0.17055035 0.1534923 -0.15532783 -0.16872713 0.1837176 -0.26980126
0.06821643 0.023481797 0.12957709 -0.11435932 -0.17156842 0.05898879 0.02193001 -0.08718413
-0.08750295 0.060409557 0.15452637 0.008624562 0.16609944 0.1611018 0.018186327 -0.21980746
0.08382245 0.0320439 0.3446452 -0.066858776 -0.022227103 -0.18434441 0.06534562 0.1793199
-0.19278066 0.025078524 0.12459023 0.1680693 -0.12301966 0.14836375 0.07556253 0.06223072
-0.027281746 0.043109324 0.15996125 0.12608021 0.16818142 0.092855096 0.028858148 0.16306053
-0.17381987 0.1967693 -0.2052128 -0.16376822 0.32874712 0.048950315 0.2986411 -0.2673432
-0.16111906 -0.049537867 -0.111871496 -0.023291634 0.1548053 -0.11232725 0.12322992 0.1093637
-0.07860996 0.12771727 -0.08733758 0.16113643 -0.16349864 0.056812476 -0.059368473 0.11326656
-0.0009089811 0.11223646 -0.058102276 -0.044685036 0.13615644 -0.1209109 0.13259247 -0.027581487
0.12113103 -0.15634693 -0.16390437 -0.025798801 0.12554039 0.17572597 0.09891549 -0.1487298
0.112505496 -0.08625411 0.16160874 -0.09238128 0.12519336 -0.06092613 -0.0013371259 -0.15598728
0.061925486 0.15017395 -0.19966024 -0.013989371 0.06552933 -0.20591594 0.15635109 0.070182666
0.0828851 0.10060744 0.026373921 0.12433254 0.0918687 -0.18157056 -0.03849072 0.14769764
-0.18502545 -0.023838554 -0.15208204 0.021420961 -0.032713037 -0.09539708 -0.14559707 -0.0038678425
-0.11909748 -0.029041642 -0.02765074 0.18364446 -0.046171714 0.074962184 0.057353992 0.15221347
0.02370977 0.10575062 0.051889323 0.11174493 -0.020291926 0.06630302 0.004886328 -0.03208378
0.13222155 -0.016450334 -0.16502728 0.0071706637 -0.013865797 0.06424171 -0.069950424 -0.096929215
-0.08652978 0.12234535 -0.031170532 0.12835309 -0.12657367 -0.09050409 0.057746083 -0.0035857789
-0.16123933 0.17033866 0.13862334 0.070967786 -0.12285798 -0.054200444 0.035291493 -0.037389353
0.14901958 0.17027643 0.033903915 0.042819995 0.06657514 -0.10126821 -0.028215818 -0.044605378
-0.08801863 0.005787331 -0.13296509 -0.11880141 -0.047055796 0.113942675 0.1450691 -0.1281995
0.12159709 0.1133008 0.14719373 -0.052320402 -0.04336919 0.06743776 0.059661582 -0.08695813
-0.057726946 -0.2421019 0.08854457 0.12418911 -0.04972142 0.1853184 0.086826965 -0.019544013
0.1385735 0.13239065 -0.230939 -0.13162619 0.062499054 0.120781586 -0.10825137 0.04049225
-0.07622662 -0.14362971 -0.07743488 -0.11155595 0.0061411387 0.036813293 -0.20668112 0.06369603
-0.037556846 -0.14832051 0.03822281 -0.1844656 0.10529587 0.077067025 -0.08058473 0.022947175
0.09998457 -0.04659546 -0.11309458 0.019240428 0.09707951 -0.072345145 -0.021752706 0.074375235
-0.0524347 0.092986226 -0.09004053 0.08849738 -0.07074179 0.1807702 0.010052777 0.13843612
-0.10435279 0.015255852 -0.016637184 -0.086095765 0.09328607 0.12569368 0.045005918 -0.0330655
-0.0644455 0.09460511 -0.028665006 0.04455377 -0.15792751 -0.044472944 -0.01815083 0.14928414
00000000: a3bd a63d c008 51bd 6040 25bd ac2a 00be
00000010: ec70 2cbe e469 e23b 3bff 533e 8efe 4d3e
00000020: 19e4 9cbe 0e4b 24be c0a4 2ebe 162d 1d3e
00000030: 420e 1fbe cec6 2cbe 7720 3c3e 6423 8abe
00000040: 0eb5 8b3d e65c c03c dbaf 043e 3835 eabd
00000050: a2af 2fbe 3b9e 713d 90a6 b33c 988d b2bd
00000060: bf34 b3bd 0370 773d 293c 1e3e 094e 0d3c
00000070: f915 2a3e dff7 243e 7efb 943c 3515 61be
00000080: 1bab ab3d 7740 033d 5675 b03e 41ed 88bd
00000090: 9d15 b6bc c8c4 3cbe edd3 853d a39f 373e
000000a0: 4b68 45be 7a71 cd3c 2a29 ff3d 5c1a 2c3e
000000b0: bbf1 fbbd abec 173e 87c0 9a3d a4e5 7e3d
000000c0: f87d dfbc 6793 303d e2cc 233e 2c1b 013e
000000d0: c037 2c3e d02a be3d ec67 ec3c 57f9 263e
000000e0: d6fd 31be e47d 493e 4e23 52be dbb2 27be
000000f0: 8b51 a83e 2080 483d 7ce7 983e 35e1 88be
00000100: 65fc 24be 38e8 4abd e21c e5bd 19ce bebc
00000110: 4885 1e3e d40b e6bd f85f fc3d 13fa df3d
00000120: 42fe a0bd 51c8 023e 0cde b2bd f300 253e
00000130: 306c 27be 33b4 683d 5b2c 73bd 4cf8 e73d
00000140: b048 6eba 3bdc e53d a7fc 6dbd a807 37bd
00000150: 986c 0b3e 22a0 f7bd 52c6 073e 92f2 e1bc
00000160: 8c13 f83d 6919 20be 8cd6 27be 0258 d3bc
00000170: a98d 003e 82f1 333e 3494 ca3d a04c 18be
00000180: 4869 e63d ffa5 b0bd c37c 253e 6632 bdbd
00000190: b032 003e ad8d 79bd 8042 afba 21bb 1fbe
000001a0: 94a5 7d3d 33c7 193e bc73 4cbe ad33 65bc
000001b0: 3e34 863d a1db 52be 801a 203e eebb 8f3d
000001c0: aabf a93d 460b ce3d 1f0e d83c 0fa2 fe3d
000001d0: a825 bc3d a2ed 39be 72a8 1dbd 0d3e 173e
000001e0: 5077 3dbe 1249 c3bc 65bb 1bbe 037b af3c
000001f0: 1bfe 05bd 8b5f c3bd 6617 15be a17b 7dbb
00000200: 61e9 f3bd bde8 edbc ce83 e2bc 4b0d 3c3e
00000210: 8d1e 3dbd c685 993d 05ec 6a3d d9dd 1b3e
00000220: fe3a c23c c893 d83d e689 543d 87da e43d
00000230: 413b a6bc e1c9 873d 7d1d a03b 486a 03bd
00000240: 1665 073e dac2 86bc e9fc 28be e3f7 ea3b
00000250: 5e2d 63bc 2891 833d 2b42 8fbd d382 c6bd
00000260: 8636 b1bd 3390 fa3d 5859 ffbc fe6e 033e
00000270: 879c 01be 355a b9bd 2887 6c3d 63ff 6abb
00000280: ec1b 25be 426d 2e3e 47f3 0d3e 8f57 913d
00000290: f79c fbbd 4901 5ebd d08d 103d 9425 19bd
000002a0: 9798 183e f25c 2e3e d5de 0a3d 0564 2f3d
000002b0: 8c58 883d b565 cfbd dc24 e7bc 21b4 36bd
000002c0: 1d43 b4bd a7a3 bd3b 0028 08be 274e f3bd
000002d0: 94bd 40bd c75a e93d ff8c 143e bb46 03be
000002e0: e507 f93d 400a e83d f4b9 163e eb4d 56bd
000002f0: e4a3 31bd cf1c 8a3d b45f 743d 1b17 b2bd
00000300: 1773 6cbd 8fe9 77be db56 b53d dc56 fe3d
00000310: b0a8 4bbd 1bc4 3d3e 56d2 b13d c41a a0bc
00000320: 36e6 0d3e 6a91 073e 467b 6cbe 04c9 06be
00000330: 02ff 7f3d 565c f73d e5b2 ddbd 34db 253d
00000340: b41c 9cbd ab13 13be 2e96 9ebd 7277 e4bd
00000350: 9b3b c93b 89c9 163d 37a4 53be 1073 823d
00000360: 35d5 19bd 55e1 17be 858f 1c3d 8de4 3cbe
00000370: 5ca5 d73d 51d5 9d3d 9b09 a5bd b7fb bb3c
00000380: b6c4 cc3d e2da 3ebd 229e e7bd 1a9e 9d3c
00000390: 9fd1 c63d b129 94bd bb32 b2bc 0b52 983d
000003a0: c5c5 56bd 906f be3d 2b67 b8bd 1d3e b53d
000003b0: 12e1 90bd d31b 393e 67b4 243c 33c2 0d3e
000003c0: eab6 d5bd aef3 793c b44a 88bc fa52 b0bd
000003d0: c40c bf3d d8b5 003e 2058 383d b16f 07bd
000003e0: 01fc 83bd 53c0 c13d e0d2 eabc 047e 363d
000003f0: c0b7 21be 4329 36bd 0db1 94bc f1dd 183e
